<?xml version="1.0" ?>
<net name="person-vehicle-bike-detection-2000" version="10">
	<layers>
		<layer id="0" name="2361236513590" type="Const" version="opset1">
			<data element_type="f16" offset="0" shape="" size="2"/>
			<output>
				<port id="0" precision="FP16"/>
			</output>
		</layer>
		<layer id="1" name="2362236612396" type="Const" version="opset1">
			<data element_type="f16" offset="2" shape="" size="2"/>
			<output>
				<port id="0" precision="FP16"/>
			</output>
		</layer>
		<layer id="2" name="2363236713938" type="Const" version="opset1">
			<data element_type="f16" offset="0" shape="" size="2"/>
			<output>
				<port id="0" precision="FP16"/>
			</output>
		</layer>
		<layer id="3" name="2364236813536" type="Const" version="opset1">
			<data element_type="f16" offset="2" shape="" size="2"/>
			<output>
				<port id="0" precision="FP16"/>
			</output>
		</layer>
		<layer id="4" name="2501250513743" type="Const" version="opset1">
			<data element_type="f16" offset="4" shape="" size="2"/>
			<output>
				<port id="0" precision="FP16"/>
			</output>
		</layer>
		<layer id="5" name="2502250613698" type="Const" version="opset1">
			<data element_type="f16" offset="6" shape="" size="2"/>
			<output>
				<port id="0" precision="FP16"/>
			</output>
		</layer>
		<layer id="6" name="2503250712891" type="Const" version="opset1">
			<data element_type="f16" offset="4" shape="" size="2"/>
			<output>
				<port id="0" precision="FP16"/>
			</output>
		</layer>
		<layer id="7" name="2504250813554" type="Const" version="opset1">
			<data element_type="f16" offset="6" shape="" size="2"/>
			<output>
				<port id="0" precision="FP16"/>
			</output>
		</layer>
		<layer id="8" name="1481148512420" type="Const" version="opset1">
			<data element_type="f16" offset="8" shape="" size="2"/>
			<output>
				<port id="0" precision="FP16"/>
			</output>
		</layer>
		<layer id="9" name="1482148613221" type="Const" version="opset1">
			<data element_type="f16" offset="10" shape="" size="2"/>
			<output>
				<port id="0" precision="FP16"/>
			</output>
		</layer>
		<layer id="10" name="1483148712801" type="Const" version="opset1">
			<data element_type="f16" offset="8" shape="" size="2"/>
			<output>
				<port id="0" precision="FP16"/>
			</output>
		</layer>
		<layer id="11" name="1484148813917" type="Const" version="opset1">
			<data element_type="f16" offset="10" shape="" size="2"/>
			<output>
				<port id="0" precision="FP16"/>
			</output>
		</layer>
		<layer id="12" name="1741174512708" type="Const" version="opset1">
			<data element_type="f16" offset="0" shape="" size="2"/>
			<output>
				<port id="0" precision="FP16"/>
			</output>
		</layer>
		<layer id="13" name="1742174612492" type="Const" version="opset1">
			<data element_type="f16" offset="12" shape="" size="2"/>
			<output>
				<port id="0" precision="FP16"/>
			</output>
		</layer>
		<layer id="14" name="1743174713818" type="Const" version="opset1">
			<data element_type="f16" offset="0" shape="" size="2"/>
			<output>
				<port id="0" precision="FP16"/>
			</output>
		</layer>
		<layer id="15" name="1744174812885" type="Const" version="opset1">
			<data element_type="f16" offset="12" shape="" size="2"/>
			<output>
				<port id="0" precision="FP16"/>
			</output>
		</layer>
		<layer id="16" name="1601160513824" type="Const" version="opset1">
			<data element_type="f16" offset="14" shape="1,576,1,1" size="1152"/>
			<output>
				<port id="0" precision="FP16">
					<dim>1</dim>
					<dim>576</dim>
					<dim>1</dim>
					<dim>1</dim>
				</port>
			</output>
		</layer>
		<layer id="17" name="1602160612477" type="Const" version="opset1">
			<data element_type="f16" offset="1166" shape="1,576,1,1" size="1152"/>
			<output>
				<port id="0" precision="FP16">
					<dim>1</dim>
					<dim>576</dim>
					<dim>1</dim>
					<dim>1</dim>
				</port>
			</output>
		</layer>
		<layer id="18" name="1603160713476" type="Const" version="opset1">
			<data element_type="f16" offset="14" shape="1,576,1,1" size="1152"/>
			<output>
				<port id="0" precision="FP16">
					<dim>1</dim>
					<dim>576</dim>
					<dim>1</dim>
					<dim>1</dim>
				</port>
			</output>
		</layer>
		<layer id="19" name="1604160812765" type="Const" version="opset1">
			<data element_type="f16" offset="1166" shape="1,576,1,1" size="1152"/>
			<output>
				<port id="0" precision="FP16">
					<dim>1</dim>
					<dim>576</dim>
					<dim>1</dim>
					<dim>1</dim>
				</port>
			</output>
		</layer>
		<layer id="20" name="1491149512816" type="Const" version="opset1">
			<data element_type="f16" offset="2318" shape="" size="2"/>
			<output>
				<port id="0" precision="FP16"/>
			</output>
		</layer>
		<layer id="21" name="1492149612969" type="Const" version="opset1">
			<data element_type="f16" offset="2320" shape="" size="2"/>
			<output>
				<port id="0" precision="FP16"/>
			</output>
		</layer>
		<layer id="22" name="1493149713872" type="Const" version="opset1">
			<data element_type="f16" offset="2318" shape="" size="2"/>
			<output>
				<port id="0" precision="FP16"/>
			</output>
		</layer>
		<layer id="23" name="1494149813479" type="Const" version="opset1">
			<data element_type="f16" offset="2320" shape="" size="2"/>
			<output>
				<port id="0" precision="FP16"/>
			</output>
		</layer>
		<layer id="24" name="2161216512954" type="Const" version="opset1">
			<data element_type="f16" offset="2322" shape="" size="2"/>
			<output>
				<port id="0" precision="FP16"/>
			</output>
		</layer>
		<layer id="25" name="2162216613272" type="Const" version="opset1">
			<data element_type="f16" offset="2324" shape="" size="2"/>
			<output>
				<port id="0" precision="FP16"/>
			</output>
		</layer>
		<layer id="26" name="2163216713086" type="Const" version="opset1">
			<data element_type="f16" offset="2322" shape="" size="2"/>
			<output>
				<port id="0" precision="FP16"/>
			</output>
		</layer>
		<layer id="27" name="2164216812588" type="Const" version="opset1">
			<data element_type="f16" offset="2324" shape="" size="2"/>
			<output>
				<port id="0" precision="FP16"/>
			</output>
		</layer>
		<layer id="28" name="1801180512462" type="Const" version="opset1">
			<data element_type="f16" offset="0" shape="" size="2"/>
			<output>
				<port id="0" precision="FP16"/>
			</output>
		</layer>
		<layer id="29" name="1802180612513" type="Const" version="opset1">
			<data element_type="f16" offset="2326" shape="" size="2"/>
			<output>
				<port id="0" precision="FP16"/>
			</output>
		</layer>
		<layer id="30" name="1803180713302" type="Const" version="opset1">
			<data element_type="f16" offset="0" shape="" size="2"/>
			<output>
				<port id="0" precision="FP16"/>
			</output>
		</layer>
		<layer id="31" name="1804180812552" type="Const" version="opset1">
			<data element_type="f16" offset="2326" shape="" size="2"/>
			<output>
				<port id="0" precision="FP16"/>
			</output>
		</layer>
		<layer id="32" name="1701170512549" type="Const" version="opset1">
			<data element_type="f16" offset="14" shape="1,576,1,1" size="1152"/>
			<output>
				<port id="0" precision="FP16">
					<dim>1</dim>
					<dim>576</dim>
					<dim>1</dim>
					<dim>1</dim>
				</port>
			</output>
		</layer>
		<layer id="33" name="1702170612570" type="Const" version="opset1">
			<data element_type="f16" offset="2328" shape="1,576,1,1" size="1152"/>
			<output>
				<port id="0" precision="FP16">
					<dim>1</dim>
					<dim>576</dim>
					<dim>1</dim>
					<dim>1</dim>
				</port>
			</output>
		</layer>
		<layer id="34" name="1703170712561" type="Const" version="opset1">
			<data element_type="f16" offset="14" shape="1,576,1,1" size="1152"/>
			<output>
				<port id="0" precision="FP16">
					<dim>1</dim>
					<dim>576</dim>
					<dim>1</dim>
					<dim>1</dim>
				</port>
			</output>
		</layer>
		<layer id="35" name="1704170812972" type="Const" version="opset1">
			<data element_type="f16" offset="2328" shape="1,576,1,1" size="1152"/>
			<output>
				<port id="0" precision="FP16">
					<dim>1</dim>
					<dim>576</dim>
					<dim>1</dim>
					<dim>1</dim>
				</port>
			</output>
		</layer>
		<layer id="36" name="2171217513248" type="Const" version="opset1">
			<data element_type="f16" offset="3480" shape="" size="2"/>
			<output>
				<port id="0" precision="FP16"/>
			</output>
		</layer>
		<layer id="37" name="2172217613851" type="Const" version="opset1">
			<data element_type="f16" offset="3482" shape="" size="2"/>
			<output>
				<port id="0" precision="FP16"/>
			</output>
		</layer>
		<layer id="38" name="2173217712573" type="Const" version="opset1">
			<data element_type="f16" offset="3480" shape="" size="2"/>
			<output>
				<port id="0" precision="FP16"/>
			</output>
		</layer>
		<layer id="39" name="2174217813359" type="Const" version="opset1">
			<data element_type="f16" offset="3482" shape="" size="2"/>
			<output>
				<port id="0" precision="FP16"/>
			</output>
		</layer>
		<layer id="40" name="2261226512393" type="Const" version="opset1">
			<data element_type="f16" offset="0" shape="" size="2"/>
			<output>
				<port id="0" precision="FP16"/>
			</output>
		</layer>
		<layer id="41" name="2262226612981" type="Const" version="opset1">
			<data element_type="f16" offset="3484" shape="" size="2"/>
			<output>
				<port id="0" precision="FP16"/>
			</output>
		</layer>
		<layer id="42" name="2263226712459" type="Const" version="opset1">
			<data element_type="f16" offset="0" shape="" size="2"/>
			<output>
				<port id="0" precision="FP16"/>
			</output>
		</layer>
		<layer id="43" name="2264226813755" type="Const" version="opset1">
			<data element_type="f16" offset="3484" shape="" size="2"/>
			<output>
				<port id="0" precision="FP16"/>
			</output>
		</layer>
		<layer id="44" name="2121212512648" type="Const" version="opset1">
			<data element_type="f16" offset="3486" shape="1,384,1,1" size="768"/>
			<output>
				<port id="0" precision="FP16">
					<dim>1</dim>
					<dim>384</dim>
					<dim>1</dim>
					<dim>1</dim>
				</port>
			</output>
		</layer>
		<layer id="45" name="2122212613158" type="Const" version="opset1">
			<data element_type="f16" offset="4254" shape="1,384,1,1" size="768"/>
			<output>
				<port id="0" precision="FP16">
					<dim>1</dim>
					<dim>384</dim>
					<dim>1</dim>
					<dim>1</dim>
				</port>
			</output>
		</layer>
		<layer id="46" name="2123212712762" type="Const" version="opset1">
			<data element_type="f16" offset="3486" shape="1,384,1,1" size="768"/>
			<output>
				<port id="0" precision="FP16">
					<dim>1</dim>
					<dim>384</dim>
					<dim>1</dim>
					<dim>1</dim>
				</port>
			</output>
		</layer>
		<layer id="47" name="2124212812408" type="Const" version="opset1">
			<data element_type="f16" offset="4254" shape="1,384,1,1" size="768"/>
			<output>
				<port id="0" precision="FP16">
					<dim>1</dim>
					<dim>384</dim>
					<dim>1</dim>
					<dim>1</dim>
				</port>
			</output>
		</layer>
		<layer id="48" name="2281228513236" type="Const" version="opset1">
			<data element_type="f16" offset="5022" shape="" size="2"/>
			<output>
				<port id="0" precision="FP16"/>
			</output>
		</layer>
		<layer id="49" name="2282228613230" type="Const" version="opset1">
			<data element_type="f16" offset="5024" shape="" size="2"/>
			<output>
				<port id="0" precision="FP16"/>
			</output>
		</layer>
		<layer id="50" name="2283228713623" type="Const" version="opset1">
			<data element_type="f16" offset="5022" shape="" size="2"/>
			<output>
				<port id="0" precision="FP16"/>
			</output>
		</layer>
		<layer id="51" name="2284228813179" type="Const" version="opset1">
			<data element_type="f16" offset="5024" shape="" size="2"/>
			<output>
				<port id="0" precision="FP16"/>
			</output>
		</layer>
		<layer id="52" name="2021202512564" type="Const" version="opset1">
			<data element_type="f16" offset="5026" shape="" size="2"/>
			<output>
				<port id="0" precision="FP16"/>
			</output>
		</layer>
		<layer id="53" name="2022202613107" type="Const" version="opset1">
			<data element_type="f16" offset="5028" shape="" size="2"/>
			<output>
				<port id="0" precision="FP16"/>
			</output>
		</layer>
		<layer id="54" name="2023202712690" type="Const" version="opset1">
			<data element_type="f16" offset="5026" shape="" size="2"/>
			<output>
				<port id="0" precision="FP16"/>
			</output>
		</layer>
		<layer id="55" name="2024202812402" type="Const" version="opset1">
			<data element_type="f16" offset="5028" shape="" size="2"/>
			<output>
				<port id="0" precision="FP16"/>
			</output>
		</layer>
		<layer id="56" name="1661166512900" type="Const" version="opset1">
			<data element_type="f16" offset="0" shape="" size="2"/>
			<output>
				<port id="0" precision="FP16"/>
			</output>
		</layer>
		<layer id="57" name="1662166613077" type="Const" version="opset1">
			<data element_type="f16" offset="5030" shape="" size="2"/>
			<output>
				<port id="0" precision="FP16"/>
			</output>
		</layer>
		<layer id="58" name="1663166713584" type="Const" version="opset1">
			<data element_type="f16" offset="0" shape="" size="2"/>
			<output>
				<port id="0" precision="FP16"/>
			</output>
		</layer>
		<layer id="59" name="1664166812945" type="Const" version="opset1">
			<data element_type="f16" offset="5030" shape="" size="2"/>
			<output>
				<port id="0" precision="FP16"/>
			</output>
		</layer>
		<layer id="60" name="1681168513620" type="Const" version="opset1">
			<data element_type="f16" offset="3486" shape="1,384,1,1" size="768"/>
			<output>
				<port id="0" precision="FP16">
					<dim>1</dim>
					<dim>384</dim>
					<dim>1</dim>
					<dim>1</dim>
				</port>
			</output>
		</layer>
		<layer id="61" name="1682168612894" type="Const" version="opset1">
			<data element_type="f16" offset="5032" shape="1,384,1,1" size="768"/>
			<output>
				<port id="0" precision="FP16">
					<dim>1</dim>
					<dim>384</dim>
					<dim>1</dim>
					<dim>1</dim>
				</port>
			</output>
		</layer>
		<layer id="62" name="1683168712411" type="Const" version="opset1">
			<data element_type="f16" offset="3486" shape="1,384,1,1" size="768"/>
			<output>
				<port id="0" precision="FP16">
					<dim>1</dim>
					<dim>384</dim>
					<dim>1</dim>
					<dim>1</dim>
				</port>
			</output>
		</layer>
		<layer id="63" name="1684168812798" type="Const" version="opset1">
			<data element_type="f16" offset="5032" shape="1,384,1,1" size="768"/>
			<output>
				<port id="0" precision="FP16">
					<dim>1</dim>
					<dim>384</dim>
					<dim>1</dim>
					<dim>1</dim>
				</port>
			</output>
		</layer>
		<layer id="64" name="2031203513650" type="Const" version="opset1">
			<data element_type="f16" offset="5800" shape="" size="2"/>
			<output>
				<port id="0" precision="FP16"/>
			</output>
		</layer>
		<layer id="65" name="2032203613419" type="Const" version="opset1">
			<data element_type="f16" offset="5802" shape="" size="2"/>
			<output>
				<port id="0" precision="FP16"/>
			</output>
		</layer>
		<layer id="66" name="2033203713701" type="Const" version="opset1">
			<data element_type="f16" offset="5800" shape="" size="2"/>
			<output>
				<port id="0" precision="FP16"/>
			</output>
		</layer>
		<layer id="67" name="2034203813770" type="Const" version="opset1">
			<data element_type="f16" offset="5802" shape="" size="2"/>
			<output>
				<port id="0" precision="FP16"/>
			</output>
		</layer>
		<layer id="68" name="1961196513344" type="Const" version="opset1">
			<data element_type="f16" offset="5804" shape="" size="2"/>
			<output>
				<port id="0" precision="FP16"/>
			</output>
		</layer>
		<layer id="69" name="1962196613233" type="Const" version="opset1">
			<data element_type="f16" offset="5806" shape="" size="2"/>
			<output>
				<port id="0" precision="FP16"/>
			</output>
		</layer>
		<layer id="70" name="1963196713488" type="Const" version="opset1">
			<data element_type="f16" offset="5804" shape="" size="2"/>
			<output>
				<port id="0" precision="FP16"/>
			</output>
		</layer>
		<layer id="71" name="1964196812426" type="Const" version="opset1">
			<data element_type="f16" offset="5806" shape="" size="2"/>
			<output>
				<port id="0" precision="FP16"/>
			</output>
		</layer>
		<layer id="72" name="1901190513416" type="Const" version="opset1">
			<data element_type="f16" offset="0" shape="" size="2"/>
			<output>
				<port id="0" precision="FP16"/>
			</output>
		</layer>
		<layer id="73" name="1902190613662" type="Const" version="opset1">
			<data element_type="f16" offset="5808" shape="" size="2"/>
			<output>
				<port id="0" precision="FP16"/>
			</output>
		</layer>
		<layer id="74" name="1903190713305" type="Const" version="opset1">
			<data element_type="f16" offset="0" shape="" size="2"/>
			<output>
				<port id="0" precision="FP16"/>
			</output>
		</layer>
		<layer id="75" name="1904190812654" type="Const" version="opset1">
			<data element_type="f16" offset="5808" shape="" size="2"/>
			<output>
				<port id="0" precision="FP16"/>
			</output>
		</layer>
		<layer id="76" name="2341234512546" type="Const" version="opset1">
			<data element_type="f16" offset="3486" shape="1,384,1,1" size="768"/>
			<output>
				<port id="0" precision="FP16">
					<dim>1</dim>
					<dim>384</dim>
					<dim>1</dim>
					<dim>1</dim>
				</port>
			</output>
		</layer>
		<layer id="77" name="2342234613113" type="Const" version="opset1">
			<data element_type="f16" offset="5810" shape="1,384,1,1" size="768"/>
			<output>
				<port id="0" precision="FP16">
					<dim>1</dim>
					<dim>384</dim>
					<dim>1</dim>
					<dim>1</dim>
				</port>
			</output>
		</layer>
		<layer id="78" name="2343234713134" type="Const" version="opset1">
			<data element_type="f16" offset="3486" shape="1,384,1,1" size="768"/>
			<output>
				<port id="0" precision="FP16">
					<dim>1</dim>
					<dim>384</dim>
					<dim>1</dim>
					<dim>1</dim>
				</port>
			</output>
		</layer>
		<layer id="79" name="2344234813311" type="Const" version="opset1">
			<data element_type="f16" offset="5810" shape="1,384,1,1" size="768"/>
			<output>
				<port id="0" precision="FP16">
					<dim>1</dim>
					<dim>384</dim>
					<dim>1</dim>
					<dim>1</dim>
				</port>
			</output>
		</layer>
		<layer id="80" name="1971197512384" type="Const" version="opset1">
			<data element_type="f16" offset="6578" shape="" size="2"/>
			<output>
				<port id="0" precision="FP16"/>
			</output>
		</layer>
		<layer id="81" name="1972197612867" type="Const" version="opset1">
			<data element_type="f16" offset="6580" shape="" size="2"/>
			<output>
				<port id="0" precision="FP16"/>
			</output>
		</layer>
		<layer id="82" name="1973197712705" type="Const" version="opset1">
			<data element_type="f16" offset="6578" shape="" size="2"/>
			<output>
				<port id="0" precision="FP16"/>
			</output>
		</layer>
		<layer id="83" name="1974197813269" type="Const" version="opset1">
			<data element_type="f16" offset="6580" shape="" size="2"/>
			<output>
				<port id="0" precision="FP16"/>
			</output>
		</layer>
		<layer id="84" name="1541154512366" type="Const" version="opset1">
			<data element_type="f16" offset="6582" shape="" size="2"/>
			<output>
				<port id="0" precision="FP16"/>
			</output>
		</layer>
		<layer id="85" name="1542154612615" type="Const" version="opset1">
			<data element_type="f16" offset="6584" shape="" size="2"/>
			<output>
				<port id="0" precision="FP16"/>
			</output>
		</layer>
		<layer id="86" name="1543154712723" type="Const" version="opset1">
			<data element_type="f16" offset="6582" shape="" size="2"/>
			<output>
				<port id="0" precision="FP16"/>
			</output>
		</layer>
		<layer id="87" name="1544154812501" type="Const" version="opset1">
			<data element_type="f16" offset="6584" shape="" size="2"/>
			<output>
				<port id="0" precision="FP16"/>
			</output>
		</layer>
		<layer id="88" name="1921192512378" type="Const" version="opset1">
			<data element_type="f16" offset="0" shape="" size="2"/>
			<output>
				<port id="0" precision="FP16"/>
			</output>
		</layer>
		<layer id="89" name="1922192612585" type="Const" version="opset1">
			<data element_type="f16" offset="6586" shape="" size="2"/>
			<output>
				<port id="0" precision="FP16"/>
			</output>
		</layer>
		<layer id="90" name="1923192713638" type="Const" version="opset1">
			<data element_type="f16" offset="0" shape="" size="2"/>
			<output>
				<port id="0" precision="FP16"/>
			</output>
		</layer>
		<layer id="91" name="1924192812372" type="Const" version="opset1">
			<data element_type="f16" offset="6586" shape="" size="2"/>
			<output>
				<port id="0" precision="FP16"/>
			</output>
		</layer>
		<layer id="92" name="2001200512603" type="Const" version="opset1">
			<data element_type="f16" offset="3486" shape="1,384,1,1" size="768"/>
			<output>
				<port id="0" precision="FP16">
					<dim>1</dim>
					<dim>384</dim>
					<dim>1</dim>
					<dim>1</dim>
				</port>
			</output>
		</layer>
		<layer id="93" name="2002200613896" type="Const" version="opset1">
			<data element_type="f16" offset="6588" shape="1,384,1,1" size="768"/>
			<output>
				<port id="0" precision="FP16">
					<dim>1</dim>
					<dim>384</dim>
					<dim>1</dim>
					<dim>1</dim>
				</port>
			</output>
		</layer>
		<layer id="94" name="2003200712732" type="Const" version="opset1">
			<data element_type="f16" offset="3486" shape="1,384,1,1" size="768"/>
			<output>
				<port id="0" precision="FP16">
					<dim>1</dim>
					<dim>384</dim>
					<dim>1</dim>
					<dim>1</dim>
				</port>
			</output>
		</layer>
		<layer id="95" name="2004200813194" type="Const" version="opset1">
			<data element_type="f16" offset="6588" shape="1,384,1,1" size="768"/>
			<output>
				<port id="0" precision="FP16">
					<dim>1</dim>
					<dim>384</dim>
					<dim>1</dim>
					<dim>1</dim>
				</port>
			</output>
		</layer>
		<layer id="96" name="1551155513533" type="Const" version="opset1">
			<data element_type="f16" offset="7356" shape="" size="2"/>
			<output>
				<port id="0" precision="FP16"/>
			</output>
		</layer>
		<layer id="97" name="1552155613503" type="Const" version="opset1">
			<data element_type="f16" offset="7358" shape="" size="2"/>
			<output>
				<port id="0" precision="FP16"/>
			</output>
		</layer>
		<layer id="98" name="1553155712672" type="Const" version="opset1">
			<data element_type="f16" offset="7356" shape="" size="2"/>
			<output>
				<port id="0" precision="FP16"/>
			</output>
		</layer>
		<layer id="99" name="1554155813812" type="Const" version="opset1">
			<data element_type="f16" offset="7358" shape="" size="2"/>
			<output>
				<port id="0" precision="FP16"/>
			</output>
		</layer>
		<layer id="100" name="2461246513551" type="Const" version="opset1">
			<data element_type="f16" offset="0" shape="" size="2"/>
			<output>
				<port id="0" precision="FP16"/>
			</output>
		</layer>
		<layer id="101" name="2462246612813" type="Const" version="opset1">
			<data element_type="f16" offset="7360" shape="" size="2"/>
			<output>
				<port id="0" precision="FP16"/>
			</output>
		</layer>
		<layer id="102" name="2463246713335" type="Const" version="opset1">
			<data element_type="f16" offset="0" shape="" size="2"/>
			<output>
				<port id="0" precision="FP16"/>
			</output>
		</layer>
		<layer id="103" name="2464246813539" type="Const" version="opset1">
			<data element_type="f16" offset="7360" shape="" size="2"/>
			<output>
				<port id="0" precision="FP16"/>
			</output>
		</layer>
		<layer id="104" name="2521252513038" type="Const" version="opset1">
			<data element_type="f16" offset="7362" shape="1,192,1,1" size="384"/>
			<output>
				<port id="0" precision="FP16">
					<dim>1</dim>
					<dim>192</dim>
					<dim>1</dim>
					<dim>1</dim>
				</port>
			</output>
		</layer>
		<layer id="105" name="2522252613782" type="Const" version="opset1">
			<data element_type="f16" offset="7746" shape="1,192,1,1" size="384"/>
			<output>
				<port id="0" precision="FP16">
					<dim>1</dim>
					<dim>192</dim>
					<dim>1</dim>
					<dim>1</dim>
				</port>
			</output>
		</layer>
		<layer id="106" name="2523252712771" type="Const" version="opset1">
			<data element_type="f16" offset="7362" shape="1,192,1,1" size="384"/>
			<output>
				<port id="0" precision="FP16">
					<dim>1</dim>
					<dim>192</dim>
					<dim>1</dim>
					<dim>1</dim>
				</port>
			</output>
		</layer>
		<layer id="107" name="2524252813686" type="Const" version="opset1">
			<data element_type="f16" offset="7746" shape="1,192,1,1" size="384"/>
			<output>
				<port id="0" precision="FP16">
					<dim>1</dim>
					<dim>192</dim>
					<dim>1</dim>
					<dim>1</dim>
				</port>
			</output>
		</layer>
		<layer id="108" name="2641264513353" type="Const" version="opset1">
			<data element_type="f16" offset="8130" shape="" size="2"/>
			<output>
				<port id="0" precision="FP16"/>
			</output>
		</layer>
		<layer id="109" name="2642264613665" type="Const" version="opset1">
			<data element_type="f16" offset="8132" shape="" size="2"/>
			<output>
				<port id="0" precision="FP16"/>
			</output>
		</layer>
		<layer id="110" name="2643264713920" type="Const" version="opset1">
			<data element_type="f16" offset="8130" shape="" size="2"/>
			<output>
				<port id="0" precision="FP16"/>
			</output>
		</layer>
		<layer id="111" name="2644264813494" type="Const" version="opset1">
			<data element_type="f16" offset="8132" shape="" size="2"/>
			<output>
				<port id="0" precision="FP16"/>
			</output>
		</layer>
		<layer id="112" name="2101210513449" type="Const" version="opset1">
			<data element_type="f16" offset="8134" shape="" size="2"/>
			<output>
				<port id="0" precision="FP16"/>
			</output>
		</layer>
		<layer id="113" name="2102210613005" type="Const" version="opset1">
			<data element_type="f16" offset="8136" shape="" size="2"/>
			<output>
				<port id="0" precision="FP16"/>
			</output>
		</layer>
		<layer id="114" name="2103210712483" type="Const" version="opset1">
			<data element_type="f16" offset="8134" shape="" size="2"/>
			<output>
				<port id="0" precision="FP16"/>
			</output>
		</layer>
		<layer id="115" name="2104210813827" type="Const" version="opset1">
			<data element_type="f16" offset="8136" shape="" size="2"/>
			<output>
				<port id="0" precision="FP16"/>
			</output>
		</layer>
		<layer id="116" name="2581258512990" type="Const" version="opset1">
			<data element_type="f16" offset="0" shape="" size="2"/>
			<output>
				<port id="0" precision="FP16"/>
			</output>
		</layer>
		<layer id="117" name="2582258612354" type="Const" version="opset1">
			<data element_type="f16" offset="8138" shape="" size="2"/>
			<output>
				<port id="0" precision="FP16"/>
			</output>
		</layer>
		<layer id="118" name="2583258713056" type="Const" version="opset1">
			<data element_type="f16" offset="0" shape="" size="2"/>
			<output>
				<port id="0" precision="FP16"/>
			</output>
		</layer>
		<layer id="119" name="2584258813227" type="Const" version="opset1">
			<data element_type="f16" offset="8138" shape="" size="2"/>
			<output>
				<port id="0" precision="FP16"/>
			</output>
		</layer>
		<layer id="120" name="2401240513290" type="Const" version="opset1">
			<data element_type="f16" offset="7362" shape="1,192,1,1" size="384"/>
			<output>
				<port id="0" precision="FP16">
					<dim>1</dim>
					<dim>192</dim>
					<dim>1</dim>
					<dim>1</dim>
				</port>
			</output>
		</layer>
		<layer id="121" name="2402240613029" type="Const" version="opset1">
			<data element_type="f16" offset="8140" shape="1,192,1,1" size="384"/>
			<output>
				<port id="0" precision="FP16">
					<dim>1</dim>
					<dim>192</dim>
					<dim>1</dim>
					<dim>1</dim>
				</port>
			</output>
		</layer>
		<layer id="122" name="2403240712864" type="Const" version="opset1">
			<data element_type="f16" offset="7362" shape="1,192,1,1" size="384"/>
			<output>
				<port id="0" precision="FP16">
					<dim>1</dim>
					<dim>192</dim>
					<dim>1</dim>
					<dim>1</dim>
				</port>
			</output>
		</layer>
		<layer id="123" name="2404240813509" type="Const" version="opset1">
			<data element_type="f16" offset="8140" shape="1,192,1,1" size="384"/>
			<output>
				<port id="0" precision="FP16">
					<dim>1</dim>
					<dim>192</dim>
					<dim>1</dim>
					<dim>1</dim>
				</port>
			</output>
		</layer>
		<layer id="124" name="2111211513329" type="Const" version="opset1">
			<data element_type="f16" offset="8524" shape="" size="2"/>
			<output>
				<port id="0" precision="FP16"/>
			</output>
		</layer>
		<layer id="125" name="2112211613197" type="Const" version="opset1">
			<data element_type="f16" offset="8526" shape="" size="2"/>
			<output>
				<port id="0" precision="FP16"/>
			</output>
		</layer>
		<layer id="126" name="2113211713797" type="Const" version="opset1">
			<data element_type="f16" offset="8524" shape="" size="2"/>
			<output>
				<port id="0" precision="FP16"/>
			</output>
		</layer>
		<layer id="127" name="2114211812714" type="Const" version="opset1">
			<data element_type="f16" offset="8526" shape="" size="2"/>
			<output>
				<port id="0" precision="FP16"/>
			</output>
		</layer>
		<layer id="128" name="1441144513614" type="Const" version="opset1">
			<data element_type="f16" offset="8528" shape="" size="2"/>
			<output>
				<port id="0" precision="FP16"/>
			</output>
		</layer>
		<layer id="129" name="1442144613140" type="Const" version="opset1">
			<data element_type="f16" offset="8530" shape="" size="2"/>
			<output>
				<port id="0" precision="FP16"/>
			</output>
		</layer>
		<layer id="130" name="1443144712957" type="Const" version="opset1">
			<data element_type="f16" offset="8528" shape="" size="2"/>
			<output>
				<port id="0" precision="FP16"/>
			</output>
		</layer>
		<layer id="131" name="1444144813731" type="Const" version="opset1">
			<data element_type="f16" offset="8530" shape="" size="2"/>
			<output>
				<port id="0" precision="FP16"/>
			</output>
		</layer>
		<layer id="132" name="1521152513809" type="Const" version="opset1">
			<data element_type="f16" offset="0" shape="" size="2"/>
			<output>
				<port id="0" precision="FP16"/>
			</output>
		</layer>
		<layer id="133" name="1522152612987" type="Const" version="opset1">
			<data element_type="f16" offset="8532" shape="" size="2"/>
			<output>
				<port id="0" precision="FP16"/>
			</output>
		</layer>
		<layer id="134" name="1523152713911" type="Const" version="opset1">
			<data element_type="f16" offset="0" shape="" size="2"/>
			<output>
				<port id="0" precision="FP16"/>
			</output>
		</layer>
		<layer id="135" name="1524152812807" type="Const" version="opset1">
			<data element_type="f16" offset="8532" shape="" size="2"/>
			<output>
				<port id="0" precision="FP16"/>
			</output>
		</layer>
		<layer id="136" name="2181218513362" type="Const" version="opset1">
			<data element_type="f16" offset="7362" shape="1,192,1,1" size="384"/>
			<output>
				<port id="0" precision="FP16">
					<dim>1</dim>
					<dim>192</dim>
					<dim>1</dim>
					<dim>1</dim>
				</port>
			</output>
		</layer>
		<layer id="137" name="2182218612651" type="Const" version="opset1">
			<data element_type="f16" offset="8534" shape="1,192,1,1" size="384"/>
			<output>
				<port id="0" precision="FP16">
					<dim>1</dim>
					<dim>192</dim>
					<dim>1</dim>
					<dim>1</dim>
				</port>
			</output>
		</layer>
		<layer id="138" name="2183218713926" type="Const" version="opset1">
			<data element_type="f16" offset="7362" shape="1,192,1,1" size="384"/>
			<output>
				<port id="0" precision="FP16">
					<dim>1</dim>
					<dim>192</dim>
					<dim>1</dim>
					<dim>1</dim>
				</port>
			</output>
		</layer>
		<layer id="139" name="2184218812597" type="Const" version="opset1">
			<data element_type="f16" offset="8534" shape="1,192,1,1" size="384"/>
			<output>
				<port id="0" precision="FP16">
					<dim>1</dim>
					<dim>192</dim>
					<dim>1</dim>
					<dim>1</dim>
				</port>
			</output>
		</layer>
		<layer id="140" name="1451145513842" type="Const" version="opset1">
			<data element_type="f16" offset="8918" shape="" size="2"/>
			<output>
				<port id="0" precision="FP16"/>
			</output>
		</layer>
		<layer id="141" name="1452145612357" type="Const" version="opset1">
			<data element_type="f16" offset="8920" shape="" size="2"/>
			<output>
				<port id="0" precision="FP16"/>
			</output>
		</layer>
		<layer id="142" name="1453145712960" type="Const" version="opset1">
			<data element_type="f16" offset="8918" shape="" size="2"/>
			<output>
				<port id="0" precision="FP16"/>
			</output>
		</layer>
		<layer id="143" name="1454145813521" type="Const" version="opset1">
			<data element_type="f16" offset="8920" shape="" size="2"/>
			<output>
				<port id="0" precision="FP16"/>
			</output>
		</layer>
		<layer id="144" name="2201220512693" type="Const" version="opset1">
			<data element_type="f16" offset="0" shape="" size="2"/>
			<output>
				<port id="0" precision="FP16"/>
			</output>
		</layer>
		<layer id="145" name="2202220612903" type="Const" version="opset1">
			<data element_type="f16" offset="8922" shape="" size="2"/>
			<output>
				<port id="0" precision="FP16"/>
			</output>
		</layer>
		<layer id="146" name="2203220712735" type="Const" version="opset1">
			<data element_type="f16" offset="0" shape="" size="2"/>
			<output>
				<port id="0" precision="FP16"/>
			</output>
		</layer>
		<layer id="147" name="2204220813674" type="Const" version="opset1">
			<data element_type="f16" offset="8922" shape="" size="2"/>
			<output>
				<port id="0" precision="FP16"/>
			</output>
		</layer>
		<layer id="148" name="1781178512861" type="Const" version="opset1">
			<data element_type="f16" offset="8924" shape="1,144,1,1" size="288"/>
			<output>
				<port id="0" precision="FP16">
					<dim>1</dim>
					<dim>144</dim>
					<dim>1</dim>
					<dim>1</dim>
				</port>
			</output>
		</layer>
		<layer id="149" name="1782178612921" type="Const" version="opset1">
			<data element_type="f16" offset="9212" shape="1,144,1,1" size="288"/>
			<output>
				<port id="0" precision="FP16">
					<dim>1</dim>
					<dim>144</dim>
					<dim>1</dim>
					<dim>1</dim>
				</port>
			</output>
		</layer>
		<layer id="150" name="1783178713692" type="Const" version="opset1">
			<data element_type="f16" offset="8924" shape="1,144,1,1" size="288"/>
			<output>
				<port id="0" precision="FP16">
					<dim>1</dim>
					<dim>144</dim>
					<dim>1</dim>
					<dim>1</dim>
				</port>
			</output>
		</layer>
		<layer id="151" name="1784178812975" type="Const" version="opset1">
			<data element_type="f16" offset="9212" shape="1,144,1,1" size="288"/>
			<output>
				<port id="0" precision="FP16">
					<dim>1</dim>
					<dim>144</dim>
					<dim>1</dim>
					<dim>1</dim>
				</port>
			</output>
		</layer>
		<layer id="152" name="2561256513356" type="Const" version="opset1">
			<data element_type="f16" offset="9500" shape="" size="2"/>
			<output>
				<port id="0" precision="FP16"/>
			</output>
		</layer>
		<layer id="153" name="2562256613128" type="Const" version="opset1">
			<data element_type="f16" offset="9502" shape="" size="2"/>
			<output>
				<port id="0" precision="FP16"/>
			</output>
		</layer>
		<layer id="154" name="2563256713035" type="Const" version="opset1">
			<data element_type="f16" offset="9500" shape="" size="2"/>
			<output>
				<port id="0" precision="FP16"/>
			</output>
		</layer>
		<layer id="155" name="2564256813629" type="Const" version="opset1">
			<data element_type="f16" offset="9502" shape="" size="2"/>
			<output>
				<port id="0" precision="FP16"/>
			</output>
		</layer>
		<layer id="156" name="1301130512624" type="Const" version="opset1">
			<data element_type="f16" offset="9504" shape="" size="2"/>
			<output>
				<port id="0" precision="FP16"/>
			</output>
		</layer>
		<layer id="157" name="1302130612927" type="Const" version="opset1">
			<data element_type="f16" offset="9506" shape="" size="2"/>
			<output>
				<port id="0" precision="FP16"/>
			</output>
		</layer>
		<layer id="158" name="1303130713089" type="Const" version="opset1">
			<data element_type="f16" offset="9504" shape="" size="2"/>
			<output>
				<port id="0" precision="FP16"/>
			</output>
		</layer>
		<layer id="159" name="1304130812339" type="Const" version="opset1">
			<data element_type="f16" offset="9506" shape="" size="2"/>
			<output>
				<port id="0" precision="FP16"/>
			</output>
		</layer>
		<layer id="160" name="2541254513308" type="Const" version="opset1">
			<data element_type="f16" offset="0" shape="" size="2"/>
			<output>
				<port id="0" precision="FP16"/>
			</output>
		</layer>
		<layer id="161" name="2542254613392" type="Const" version="opset1">
			<data element_type="f16" offset="9508" shape="" size="2"/>
			<output>
				<port id="0" precision="FP16"/>
			</output>
		</layer>
		<layer id="162" name="2543254712555" type="Const" version="opset1">
			<data element_type="f16" offset="0" shape="" size="2"/>
			<output>
				<port id="0" precision="FP16"/>
			</output>
		</layer>
		<layer id="163" name="2544254813065" type="Const" version="opset1">
			<data element_type="f16" offset="9508" shape="" size="2"/>
			<output>
				<port id="0" precision="FP16"/>
			</output>
		</layer>
		<layer id="164" name="2661266513293" type="Const" version="opset1">
			<data element_type="f16" offset="8924" shape="1,144,1,1" size="288"/>
			<output>
				<port id="0" precision="FP16">
					<dim>1</dim>
					<dim>144</dim>
					<dim>1</dim>
					<dim>1</dim>
				</port>
			</output>
		</layer>
		<layer id="165" name="2662266613389" type="Const" version="opset1">
			<data element_type="f16" offset="9510" shape="1,144,1,1" size="288"/>
			<output>
				<port id="0" precision="FP16">
					<dim>1</dim>
					<dim>144</dim>
					<dim>1</dim>
					<dim>1</dim>
				</port>
			</output>
		</layer>
		<layer id="166" name="2663266712486" type="Const" version="opset1">
			<data element_type="f16" offset="8924" shape="1,144,1,1" size="288"/>
			<output>
				<port id="0" precision="FP16">
					<dim>1</dim>
					<dim>144</dim>
					<dim>1</dim>
					<dim>1</dim>
				</port>
			</output>
		</layer>
		<layer id="167" name="2664266812738" type="Const" version="opset1">
			<data element_type="f16" offset="9510" shape="1,144,1,1" size="288"/>
			<output>
				<port id="0" precision="FP16">
					<dim>1</dim>
					<dim>144</dim>
					<dim>1</dim>
					<dim>1</dim>
				</port>
			</output>
		</layer>
		<layer id="168" name="1311131513902" type="Const" version="opset1">
			<data element_type="f16" offset="9798" shape="" size="2"/>
			<output>
				<port id="0" precision="FP16"/>
			</output>
		</layer>
		<layer id="169" name="1312131612606" type="Const" version="opset1">
			<data element_type="f16" offset="9800" shape="" size="2"/>
			<output>
				<port id="0" precision="FP16"/>
			</output>
		</layer>
		<layer id="170" name="1313131713608" type="Const" version="opset1">
			<data element_type="f16" offset="9798" shape="" size="2"/>
			<output>
				<port id="0" precision="FP16"/>
			</output>
		</layer>
		<layer id="171" name="1314131813890" type="Const" version="opset1">
			<data element_type="f16" offset="9800" shape="" size="2"/>
			<output>
				<port id="0" precision="FP16"/>
			</output>
		</layer>
		<layer id="172" name="1841184512474" type="Const" version="opset1">
			<data element_type="f16" offset="0" shape="" size="2"/>
			<output>
				<port id="0" precision="FP16"/>
			</output>
		</layer>
		<layer id="173" name="1842184612879" type="Const" version="opset1">
			<data element_type="f16" offset="9802" shape="" size="2"/>
			<output>
				<port id="0" precision="FP16"/>
			</output>
		</layer>
		<layer id="174" name="1843184712405" type="Const" version="opset1">
			<data element_type="f16" offset="0" shape="" size="2"/>
			<output>
				<port id="0" precision="FP16"/>
			</output>
		</layer>
		<layer id="175" name="1844184812840" type="Const" version="opset1">
			<data element_type="f16" offset="9802" shape="" size="2"/>
			<output>
				<port id="0" precision="FP16"/>
			</output>
		</layer>
		<layer id="176" name="2381238513863" type="Const" version="opset1">
			<data element_type="f16" offset="9804" shape="1,96,1,1" size="192"/>
			<output>
				<port id="0" precision="FP16">
					<dim>1</dim>
					<dim>96</dim>
					<dim>1</dim>
					<dim>1</dim>
				</port>
			</output>
		</layer>
		<layer id="177" name="2382238612456" type="Const" version="opset1">
			<data element_type="f16" offset="9996" shape="1,96,1,1" size="192"/>
			<output>
				<port id="0" precision="FP16">
					<dim>1</dim>
					<dim>96</dim>
					<dim>1</dim>
					<dim>1</dim>
				</port>
			</output>
		</layer>
		<layer id="178" name="2383238712594" type="Const" version="opset1">
			<data element_type="f16" offset="9804" shape="1,96,1,1" size="192"/>
			<output>
				<port id="0" precision="FP16">
					<dim>1</dim>
					<dim>96</dim>
					<dim>1</dim>
					<dim>1</dim>
				</port>
			</output>
		</layer>
		<layer id="179" name="2384238812858" type="Const" version="opset1">
			<data element_type="f16" offset="9996" shape="1,96,1,1" size="192"/>
			<output>
				<port id="0" precision="FP16">
					<dim>1</dim>
					<dim>96</dim>
					<dim>1</dim>
					<dim>1</dim>
				</port>
			</output>
		</layer>
		<layer id="180" name="1761176513437" type="Const" version="opset1">
			<data element_type="f16" offset="0" shape="" size="2"/>
			<output>
				<port id="0" precision="FP16"/>
			</output>
		</layer>
		<layer id="181" name="1762176613011" type="Const" version="opset1">
			<data element_type="f16" offset="10188" shape="" size="2"/>
			<output>
				<port id="0" precision="FP16"/>
			</output>
		</layer>
		<layer id="182" name="1763176713644" type="Const" version="opset1">
			<data element_type="f16" offset="0" shape="" size="2"/>
			<output>
				<port id="0" precision="FP16"/>
			</output>
		</layer>
		<layer id="183" name="1764176812633" type="Const" version="opset1">
			<data element_type="f16" offset="10188" shape="" size="2"/>
			<output>
				<port id="0" precision="FP16"/>
			</output>
		</layer>
		<layer id="184" name="1321132512324" type="Const" version="opset1">
			<data element_type="f16" offset="0" shape="" size="2"/>
			<output>
				<port id="0" precision="FP16"/>
			</output>
		</layer>
		<layer id="185" name="1322132612471" type="Const" version="opset1">
			<data element_type="f16" offset="10190" shape="" size="2"/>
			<output>
				<port id="0" precision="FP16"/>
			</output>
		</layer>
		<layer id="186" name="1323132712948" type="Const" version="opset1">
			<data element_type="f16" offset="0" shape="" size="2"/>
			<output>
				<port id="0" precision="FP16"/>
			</output>
		</layer>
		<layer id="187" name="1324132813704" type="Const" version="opset1">
			<data element_type="f16" offset="10190" shape="" size="2"/>
			<output>
				<port id="0" precision="FP16"/>
			</output>
		</layer>
		<layer id="188" name="image" type="Parameter" version="opset1">
			<data element_type="f16" shape="1,3,256,256"/>
			<output>
				<port id="0" names="image" precision="FP16">
					<dim>1</dim>
					<dim>3</dim>
					<dim>256</dim>
					<dim>256</dim>
				</port>
			</output>
		</layer>
		<layer id="189" name="image/scale_input_port_1/value28532249540012939" type="Const" version="opset1">
			<data element_type="f16" offset="10192" shape="1,1,1,1" size="2"/>
			<output>
				<port id="0" precision="FP16">
					<dim>1</dim>
					<dim>1</dim>
					<dim>1</dim>
					<dim>1</dim>
				</port>
			</output>
		</layer>
		<layer id="190" name="image/scale" type="Multiply" version="opset1">
			<data auto_broadcast="numpy"/>
			<input>
				<port id="0">
					<dim>1</dim>
					<dim>3</dim>
					<dim>256</dim>
					<dim>256</dim>
				</port>
				<port id="1">
					<dim>1</dim>
					<dim>1</dim>
					<dim>1</dim>
					<dim>1</dim>
				</port>
			</input>
			<output>
				<port id="2" precision="FP16">
					<dim>1</dim>
					<dim>3</dim>
					<dim>256</dim>
					<dim>256</dim>
				</port>
			</output>
		</layer>
		<layer id="191" name="Conv_0/fq_input_0" type="FakeQuantize" version="opset1">
			<data auto_broadcast="numpy" levels="256"/>
			<input>
				<port id="0">
					<dim>1</dim>
					<dim>3</dim>
					<dim>256</dim>
					<dim>256</dim>
				</port>
				<port id="1"/>
				<port id="2"/>
				<port id="3"/>
				<port id="4"/>
			</input>
			<output>
				<port id="5" precision="FP16">
					<dim>1</dim>
					<dim>3</dim>
					<dim>256</dim>
					<dim>256</dim>
				</port>
			</output>
		</layer>
		<layer id="192" name="BatchNormalization_1/mean/Fused_Mul__copy4028121/quantized979113485" type="Const" version="opset1">
			<data element_type="i8" offset="10194" shape="32,3,3,3" size="864"/>
			<output>
				<port id="0" precision="I8">
					<dim>32</dim>
					<dim>3</dim>
					<dim>3</dim>
					<dim>3</dim>
				</port>
			</output>
		</layer>
		<layer id="193" name="BatchNormalization_1/mean/Fused_Mul__copy4028121/quantized/to_f16" type="Convert" version="opset1">
			<data destination_type="f16"/>
			<input>
				<port id="0">
					<dim>32</dim>
					<dim>3</dim>
					<dim>3</dim>
					<dim>3</dim>
				</port>
			</input>
			<output>
				<port id="1" precision="FP16">
					<dim>32</dim>
					<dim>3</dim>
					<dim>3</dim>
					<dim>3</dim>
				</port>
			</output>
		</layer>
		<layer id="194" name="Conv_0/fq_weights_1/zero_point980413764" type="Const" version="opset1">
			<data element_type="f16" offset="11058" shape="32,1,1,1" size="64"/>
			<output>
				<port id="0" precision="FP16">
					<dim>32</dim>
					<dim>1</dim>
					<dim>1</dim>
					<dim>1</dim>
				</port>
			</output>
		</layer>
		<layer id="195" name="Conv_0/fq_weights_1/minus_zp" type="Subtract" version="opset1">
			<data auto_broadcast="numpy"/>
			<input>
				<port id="0">
					<dim>32</dim>
					<dim>3</dim>
					<dim>3</dim>
					<dim>3</dim>
				</port>
				<port id="1">
					<dim>32</dim>
					<dim>1</dim>
					<dim>1</dim>
					<dim>1</dim>
				</port>
			</input>
			<output>
				<port id="2" precision="FP16">
					<dim>32</dim>
					<dim>3</dim>
					<dim>3</dim>
					<dim>3</dim>
				</port>
			</output>
		</layer>
		<layer id="196" name="Conv_0/fq_weights_1/scale979913347" type="Const" version="opset1">
			<data element_type="f16" offset="11122" shape="32,1,1,1" size="64"/>
			<output>
				<port id="0" precision="FP16">
					<dim>32</dim>
					<dim>1</dim>
					<dim>1</dim>
					<dim>1</dim>
				</port>
			</output>
		</layer>
		<layer id="197" name="Conv_0/fq_weights_1/mulpiply_by_scale" type="Multiply" version="opset1">
			<data auto_broadcast="numpy"/>
			<input>
				<port id="0">
					<dim>32</dim>
					<dim>3</dim>
					<dim>3</dim>
					<dim>3</dim>
				</port>
				<port id="1">
					<dim>32</dim>
					<dim>1</dim>
					<dim>1</dim>
					<dim>1</dim>
				</port>
			</input>
			<output>
				<port id="2" precision="FP16">
					<dim>32</dim>
					<dim>3</dim>
					<dim>3</dim>
					<dim>3</dim>
				</port>
			</output>
		</layer>
		<layer id="198" name="Conv_0" type="Convolution" version="opset1">
			<data auto_pad="explicit" dilations="1,1" pads_begin="1,1" pads_end="1,1" strides="2,2"/>
			<input>
				<port id="0">
					<dim>1</dim>
					<dim>3</dim>
					<dim>256</dim>
					<dim>256</dim>
				</port>
				<port id="1">
					<dim>32</dim>
					<dim>3</dim>
					<dim>3</dim>
					<dim>3</dim>
				</port>
			</input>
			<output>
				<port id="2" precision="FP16">
					<dim>1</dim>
					<dim>32</dim>
					<dim>128</dim>
					<dim>128</dim>
				</port>
			</output>
		</layer>
		<layer id="199" name="data_add_1189740413737" type="Const" version="opset1">
			<data element_type="f16" offset="11186" shape="1,32,1,1" size="64"/>
			<output>
				<port id="0" precision="FP16">
					<dim>1</dim>
					<dim>32</dim>
					<dim>1</dim>
					<dim>1</dim>
				</port>
			</output>
		</layer>
		<layer id="200" name="BatchNormalization_1/variance/Fused_Add_" type="Add" version="opset1">
			<data auto_broadcast="numpy"/>
			<input>
				<port id="0">
					<dim>1</dim>
					<dim>32</dim>
					<dim>128</dim>
					<dim>128</dim>
				</port>
				<port id="1">
					<dim>1</dim>
					<dim>32</dim>
					<dim>1</dim>
					<dim>1</dim>
				</port>
			</input>
			<output>
				<port id="2" names="351" precision="FP16">
					<dim>1</dim>
					<dim>32</dim>
					<dim>128</dim>
					<dim>128</dim>
				</port>
			</output>
		</layer>
		<layer id="201" name="Clip_2" type="Clamp" version="opset1">
			<data max="6" min="0"/>
			<input>
				<port id="0">
					<dim>1</dim>
					<dim>32</dim>
					<dim>128</dim>
					<dim>128</dim>
				</port>
			</input>
			<output>
				<port id="1" names="352" precision="FP16">
					<dim>1</dim>
					<dim>32</dim>
					<dim>128</dim>
					<dim>128</dim>
				</port>
			</output>
		</layer>
		<layer id="202" name="Conv_3/fq_weights_11959" type="Const" version="opset1">
			<data element_type="f16" offset="11250" shape="32,32,1,1" size="2048"/>
			<output>
				<port id="0" names="backbone.features.stage1.unit1.conv1.conv.weight" precision="FP16">
					<dim>32</dim>
					<dim>32</dim>
					<dim>1</dim>
					<dim>1</dim>
				</port>
			</output>
		</layer>
		<layer id="203" name="Conv_3" type="Convolution" version="opset1">
			<data auto_pad="explicit" dilations="1,1" pads_begin="0,0" pads_end="0,0" strides="1,1"/>
			<input>
				<port id="0">
					<dim>1</dim>
					<dim>32</dim>
					<dim>128</dim>
					<dim>128</dim>
				</port>
				<port id="1">
					<dim>32</dim>
					<dim>32</dim>
					<dim>1</dim>
					<dim>1</dim>
				</port>
			</input>
			<output>
				<port id="2" precision="FP16">
					<dim>1</dim>
					<dim>32</dim>
					<dim>128</dim>
					<dim>128</dim>
				</port>
			</output>
		</layer>
		<layer id="204" name="data_add_119001190540913263" type="Const" version="opset1">
			<data element_type="f16" offset="13298" shape="1,32,1,1" size="64"/>
			<output>
				<port id="0" precision="FP16">
					<dim>1</dim>
					<dim>32</dim>
					<dim>1</dim>
					<dim>1</dim>
				</port>
			</output>
		</layer>
		<layer id="205" name="BatchNormalization_4/variance/Fused_Add_" type="Add" version="opset1">
			<data auto_broadcast="numpy"/>
			<input>
				<port id="0">
					<dim>1</dim>
					<dim>32</dim>
					<dim>128</dim>
					<dim>128</dim>
				</port>
				<port id="1">
					<dim>1</dim>
					<dim>32</dim>
					<dim>1</dim>
					<dim>1</dim>
				</port>
			</input>
			<output>
				<port id="2" names="354" precision="FP16">
					<dim>1</dim>
					<dim>32</dim>
					<dim>128</dim>
					<dim>128</dim>
				</port>
			</output>
		</layer>
		<layer id="206" name="Clip_5" type="Clamp" version="opset1">
			<data max="6" min="0"/>
			<input>
				<port id="0">
					<dim>1</dim>
					<dim>32</dim>
					<dim>128</dim>
					<dim>128</dim>
				</port>
			</input>
			<output>
				<port id="1" names="355" precision="FP16">
					<dim>1</dim>
					<dim>32</dim>
					<dim>128</dim>
					<dim>128</dim>
				</port>
			</output>
		</layer>
		<layer id="207" name="Conv_6/fq_weights_11519" type="Const" version="opset1">
			<data element_type="f16" offset="13362" shape="32,1,1,3,3" size="576"/>
			<output>
				<port id="0" names="backbone.features.stage1.unit1.conv2.conv.weight" precision="FP16">
					<dim>32</dim>
					<dim>1</dim>
					<dim>1</dim>
					<dim>3</dim>
					<dim>3</dim>
				</port>
			</output>
		</layer>
		<layer id="208" name="Conv_6" type="GroupConvolution" version="opset1">
			<data auto_pad="explicit" dilations="1,1" pads_begin="1,1" pads_end="1,1" strides="1,1"/>
			<input>
				<port id="0">
					<dim>1</dim>
					<dim>32</dim>
					<dim>128</dim>
					<dim>128</dim>
				</port>
				<port id="1">
					<dim>32</dim>
					<dim>1</dim>
					<dim>1</dim>
					<dim>3</dim>
					<dim>3</dim>
				</port>
			</input>
			<output>
				<port id="2" precision="FP16">
					<dim>1</dim>
					<dim>32</dim>
					<dim>128</dim>
					<dim>128</dim>
				</port>
			</output>
		</layer>
		<layer id="209" name="data_add_119081191341413935" type="Const" version="opset1">
			<data element_type="f16" offset="13938" shape="1,32,1,1" size="64"/>
			<output>
				<port id="0" precision="FP16">
					<dim>1</dim>
					<dim>32</dim>
					<dim>1</dim>
					<dim>1</dim>
				</port>
			</output>
		</layer>
		<layer id="210" name="BatchNormalization_7/variance/Fused_Add_" type="Add" version="opset1">
			<data auto_broadcast="numpy"/>
			<input>
				<port id="0">
					<dim>1</dim>
					<dim>32</dim>
					<dim>128</dim>
					<dim>128</dim>
				</port>
				<port id="1">
					<dim>1</dim>
					<dim>32</dim>
					<dim>1</dim>
					<dim>1</dim>
				</port>
			</input>
			<output>
				<port id="2" names="357" precision="FP16">
					<dim>1</dim>
					<dim>32</dim>
					<dim>128</dim>
					<dim>128</dim>
				</port>
			</output>
		</layer>
		<layer id="211" name="Clip_8" type="Clamp" version="opset1">
			<data max="6" min="0"/>
			<input>
				<port id="0">
					<dim>1</dim>
					<dim>32</dim>
					<dim>128</dim>
					<dim>128</dim>
				</port>
			</input>
			<output>
				<port id="1" names="358" precision="FP16">
					<dim>1</dim>
					<dim>32</dim>
					<dim>128</dim>
					<dim>128</dim>
				</port>
			</output>
		</layer>
		<layer id="212" name="Conv_9/fq_input_0" type="FakeQuantize" version="opset1">
			<data auto_broadcast="numpy" levels="256"/>
			<input>
				<port id="0">
					<dim>1</dim>
					<dim>32</dim>
					<dim>128</dim>
					<dim>128</dim>
				</port>
				<port id="1"/>
				<port id="2"/>
				<port id="3"/>
				<port id="4"/>
			</input>
			<output>
				<port id="5" precision="FP16">
					<dim>1</dim>
					<dim>32</dim>
					<dim>128</dim>
					<dim>128</dim>
				</port>
			</output>
		</layer>
		<layer id="213" name="BatchNormalization_10/mean/Fused_Mul__copy4178127/quantized885513119" type="Const" version="opset1">
			<data element_type="i8" offset="14002" shape="16,32,1,1" size="512"/>
			<output>
				<port id="0" precision="I8">
					<dim>16</dim>
					<dim>32</dim>
					<dim>1</dim>
					<dim>1</dim>
				</port>
			</output>
		</layer>
		<layer id="214" name="BatchNormalization_10/mean/Fused_Mul__copy4178127/quantized/to_f16" type="Convert" version="opset1">
			<data destination_type="f16"/>
			<input>
				<port id="0">
					<dim>16</dim>
					<dim>32</dim>
					<dim>1</dim>
					<dim>1</dim>
				</port>
			</input>
			<output>
				<port id="1" precision="FP16">
					<dim>16</dim>
					<dim>32</dim>
					<dim>1</dim>
					<dim>1</dim>
				</port>
			</output>
		</layer>
		<layer id="215" name="Conv_9/fq_weights_1/zero_point886812489" type="Const" version="opset1">
			<data element_type="f16" offset="14514" shape="16,1,1,1" size="32"/>
			<output>
				<port id="0" precision="FP16">
					<dim>16</dim>
					<dim>1</dim>
					<dim>1</dim>
					<dim>1</dim>
				</port>
			</output>
		</layer>
		<layer id="216" name="Conv_9/fq_weights_1/minus_zp" type="Subtract" version="opset1">
			<data auto_broadcast="numpy"/>
			<input>
				<port id="0">
					<dim>16</dim>
					<dim>32</dim>
					<dim>1</dim>
					<dim>1</dim>
				</port>
				<port id="1">
					<dim>16</dim>
					<dim>1</dim>
					<dim>1</dim>
					<dim>1</dim>
				</port>
			</input>
			<output>
				<port id="2" precision="FP16">
					<dim>16</dim>
					<dim>32</dim>
					<dim>1</dim>
					<dim>1</dim>
				</port>
			</output>
		</layer>
		<layer id="217" name="Conv_9/fq_weights_1/scale886313512" type="Const" version="opset1">
			<data element_type="f16" offset="14546" shape="16,1,1,1" size="32"/>
			<output>
				<port id="0" precision="FP16">
					<dim>16</dim>
					<dim>1</dim>
					<dim>1</dim>
					<dim>1</dim>
				</port>
			</output>
		</layer>
		<layer id="218" name="Conv_9/fq_weights_1/mulpiply_by_scale" type="Multiply" version="opset1">
			<data auto_broadcast="numpy"/>
			<input>
				<port id="0">
					<dim>16</dim>
					<dim>32</dim>
					<dim>1</dim>
					<dim>1</dim>
				</port>
				<port id="1">
					<dim>16</dim>
					<dim>1</dim>
					<dim>1</dim>
					<dim>1</dim>
				</port>
			</input>
			<output>
				<port id="2" precision="FP16">
					<dim>16</dim>
					<dim>32</dim>
					<dim>1</dim>
					<dim>1</dim>
				</port>
			</output>
		</layer>
		<layer id="219" name="Conv_9" type="Convolution" version="opset1">
			<data auto_pad="explicit" dilations="1,1" pads_begin="0,0" pads_end="0,0" strides="1,1"/>
			<input>
				<port id="0">
					<dim>1</dim>
					<dim>32</dim>
					<dim>128</dim>
					<dim>128</dim>
				</port>
				<port id="1">
					<dim>16</dim>
					<dim>32</dim>
					<dim>1</dim>
					<dim>1</dim>
				</port>
			</input>
			<output>
				<port id="2" precision="FP16">
					<dim>1</dim>
					<dim>16</dim>
					<dim>128</dim>
					<dim>128</dim>
				</port>
			</output>
		</layer>
		<layer id="220" name="data_add_119161192141913515" type="Const" version="opset1">
			<data element_type="f16" offset="14578" shape="1,16,1,1" size="32"/>
			<output>
				<port id="0" precision="FP16">
					<dim>1</dim>
					<dim>16</dim>
					<dim>1</dim>
					<dim>1</dim>
				</port>
			</output>
		</layer>
		<layer id="221" name="BatchNormalization_10/variance/Fused_Add_" type="Add" version="opset1">
			<data auto_broadcast="numpy"/>
			<input>
				<port id="0">
					<dim>1</dim>
					<dim>16</dim>
					<dim>128</dim>
					<dim>128</dim>
				</port>
				<port id="1">
					<dim>1</dim>
					<dim>16</dim>
					<dim>1</dim>
					<dim>1</dim>
				</port>
			</input>
			<output>
				<port id="2" names="360" precision="FP16">
					<dim>1</dim>
					<dim>16</dim>
					<dim>128</dim>
					<dim>128</dim>
				</port>
			</output>
		</layer>
		<layer id="222" name="Conv_11/fq_weights_12159" type="Const" version="opset1">
			<data element_type="f16" offset="14610" shape="96,16,1,1" size="3072"/>
			<output>
				<port id="0" names="backbone.features.stage2.unit1.conv1.conv.weight" precision="FP16">
					<dim>96</dim>
					<dim>16</dim>
					<dim>1</dim>
					<dim>1</dim>
				</port>
			</output>
		</layer>
		<layer id="223" name="Conv_11" type="Convolution" version="opset1">
			<data auto_pad="explicit" dilations="1,1" pads_begin="0,0" pads_end="0,0" strides="1,1"/>
			<input>
				<port id="0">
					<dim>1</dim>
					<dim>16</dim>
					<dim>128</dim>
					<dim>128</dim>
				</port>
				<port id="1">
					<dim>96</dim>
					<dim>16</dim>
					<dim>1</dim>
					<dim>1</dim>
				</port>
			</input>
			<output>
				<port id="2" precision="FP16">
					<dim>1</dim>
					<dim>96</dim>
					<dim>128</dim>
					<dim>128</dim>
				</port>
			</output>
		</layer>
		<layer id="224" name="data_add_119241192942313596" type="Const" version="opset1">
			<data element_type="f16" offset="17682" shape="1,96,1,1" size="192"/>
			<output>
				<port id="0" precision="FP16">
					<dim>1</dim>
					<dim>96</dim>
					<dim>1</dim>
					<dim>1</dim>
				</port>
			</output>
		</layer>
		<layer id="225" name="BatchNormalization_12/variance/Fused_Add_" type="Add" version="opset1">
			<data auto_broadcast="numpy"/>
			<input>
				<port id="0">
					<dim>1</dim>
					<dim>96</dim>
					<dim>128</dim>
					<dim>128</dim>
				</port>
				<port id="1">
					<dim>1</dim>
					<dim>96</dim>
					<dim>1</dim>
					<dim>1</dim>
				</port>
			</input>
			<output>
				<port id="2" names="362" precision="FP16">
					<dim>1</dim>
					<dim>96</dim>
					<dim>128</dim>
					<dim>128</dim>
				</port>
			</output>
		</layer>
		<layer id="226" name="Clip_13" type="Clamp" version="opset1">
			<data max="6" min="0"/>
			<input>
				<port id="0">
					<dim>1</dim>
					<dim>96</dim>
					<dim>128</dim>
					<dim>128</dim>
				</port>
			</input>
			<output>
				<port id="1" names="363" precision="FP16">
					<dim>1</dim>
					<dim>96</dim>
					<dim>128</dim>
					<dim>128</dim>
				</port>
			</output>
		</layer>
		<layer id="227" name="Conv_14/fq_input_0" type="FakeQuantize" version="opset1">
			<data auto_broadcast="numpy" levels="256"/>
			<input>
				<port id="0">
					<dim>1</dim>
					<dim>96</dim>
					<dim>128</dim>
					<dim>128</dim>
				</port>
				<port id="1">
					<dim>1</dim>
					<dim>96</dim>
					<dim>1</dim>
					<dim>1</dim>
				</port>
				<port id="2">
					<dim>1</dim>
					<dim>96</dim>
					<dim>1</dim>
					<dim>1</dim>
				</port>
				<port id="3">
					<dim>1</dim>
					<dim>96</dim>
					<dim>1</dim>
					<dim>1</dim>
				</port>
				<port id="4">
					<dim>1</dim>
					<dim>96</dim>
					<dim>1</dim>
					<dim>1</dim>
				</port>
			</input>
			<output>
				<port id="5" precision="FP16">
					<dim>1</dim>
					<dim>96</dim>
					<dim>128</dim>
					<dim>128</dim>
				</port>
			</output>
		</layer>
		<layer id="228" name="11214/value1121612681" type="Const" version="opset1">
			<data element_type="i64" offset="17874" shape="5" size="40"/>
			<output>
				<port id="0" precision="I64">
					<dim>5</dim>
				</port>
			</output>
		</layer>
		<layer id="229" name="BatchNormalization_15/mean/Fused_Mul__copy4268131/quantized988713545" type="Const" version="opset1">
			<data element_type="i8" offset="17914" shape="96,1,3,3" size="864"/>
			<output>
				<port id="0" precision="I8">
					<dim>96</dim>
					<dim>1</dim>
					<dim>3</dim>
					<dim>3</dim>
				</port>
			</output>
		</layer>
		<layer id="230" name="BatchNormalization_15/mean/Fused_Mul__copy4268131/quantized/to_f16" type="Convert" version="opset1">
			<data destination_type="f16"/>
			<input>
				<port id="0">
					<dim>96</dim>
					<dim>1</dim>
					<dim>3</dim>
					<dim>3</dim>
				</port>
			</input>
			<output>
				<port id="1" precision="FP16">
					<dim>96</dim>
					<dim>1</dim>
					<dim>3</dim>
					<dim>3</dim>
				</port>
			</output>
		</layer>
		<layer id="231" name="Conv_14/fq_weights_1/zero_point990013251" type="Const" version="opset1">
			<data element_type="f16" offset="18778" shape="96,1,1,1" size="192"/>
			<output>
				<port id="0" precision="FP16">
					<dim>96</dim>
					<dim>1</dim>
					<dim>1</dim>
					<dim>1</dim>
				</port>
			</output>
		</layer>
		<layer id="232" name="Conv_14/fq_weights_1/minus_zp" type="Subtract" version="opset1">
			<data auto_broadcast="numpy"/>
			<input>
				<port id="0">
					<dim>96</dim>
					<dim>1</dim>
					<dim>3</dim>
					<dim>3</dim>
				</port>
				<port id="1">
					<dim>96</dim>
					<dim>1</dim>
					<dim>1</dim>
					<dim>1</dim>
				</port>
			</input>
			<output>
				<port id="2" precision="FP16">
					<dim>96</dim>
					<dim>1</dim>
					<dim>3</dim>
					<dim>3</dim>
				</port>
			</output>
		</layer>
		<layer id="233" name="Conv_14/fq_weights_1/scale989513749" type="Const" version="opset1">
			<data element_type="f16" offset="18970" shape="96,1,1,1" size="192"/>
			<output>
				<port id="0" precision="FP16">
					<dim>96</dim>
					<dim>1</dim>
					<dim>1</dim>
					<dim>1</dim>
				</port>
			</output>
		</layer>
		<layer id="234" name="Conv_14/fq_weights_1/mulpiply_by_scale" type="Multiply" version="opset1">
			<data auto_broadcast="numpy"/>
			<input>
				<port id="0">
					<dim>96</dim>
					<dim>1</dim>
					<dim>3</dim>
					<dim>3</dim>
				</port>
				<port id="1">
					<dim>96</dim>
					<dim>1</dim>
					<dim>1</dim>
					<dim>1</dim>
				</port>
			</input>
			<output>
				<port id="2" precision="FP16">
					<dim>96</dim>
					<dim>1</dim>
					<dim>3</dim>
					<dim>3</dim>
				</port>
			</output>
		</layer>
		<layer id="235" name="11214" type="Reshape" version="opset1">
			<data special_zero="true"/>
			<input>
				<port id="0">
					<dim>96</dim>
					<dim>1</dim>
					<dim>3</dim>
					<dim>3</dim>
				</port>
				<port id="1">
					<dim>5</dim>
				</port>
			</input>
			<output>
				<port id="2" precision="FP16">
					<dim>96</dim>
					<dim>1</dim>
					<dim>1</dim>
					<dim>3</dim>
					<dim>3</dim>
				</port>
			</output>
		</layer>
		<layer id="236" name="Conv_14" type="GroupConvolution" version="opset1">
			<data auto_pad="explicit" dilations="1,1" pads_begin="1,1" pads_end="1,1" strides="2,2"/>
			<input>
				<port id="0">
					<dim>1</dim>
					<dim>96</dim>
					<dim>128</dim>
					<dim>128</dim>
				</port>
				<port id="1">
					<dim>96</dim>
					<dim>1</dim>
					<dim>1</dim>
					<dim>3</dim>
					<dim>3</dim>
				</port>
			</input>
			<output>
				<port id="2" precision="FP16">
					<dim>1</dim>
					<dim>96</dim>
					<dim>64</dim>
					<dim>64</dim>
				</port>
			</output>
		</layer>
		<layer id="237" name="data_add_119321193742812540" type="Const" version="opset1">
			<data element_type="f16" offset="19162" shape="1,96,1,1" size="192"/>
			<output>
				<port id="0" precision="FP16">
					<dim>1</dim>
					<dim>96</dim>
					<dim>1</dim>
					<dim>1</dim>
				</port>
			</output>
		</layer>
		<layer id="238" name="BatchNormalization_15/variance/Fused_Add_" type="Add" version="opset1">
			<data auto_broadcast="numpy"/>
			<input>
				<port id="0">
					<dim>1</dim>
					<dim>96</dim>
					<dim>64</dim>
					<dim>64</dim>
				</port>
				<port id="1">
					<dim>1</dim>
					<dim>96</dim>
					<dim>1</dim>
					<dim>1</dim>
				</port>
			</input>
			<output>
				<port id="2" names="365" precision="FP16">
					<dim>1</dim>
					<dim>96</dim>
					<dim>64</dim>
					<dim>64</dim>
				</port>
			</output>
		</layer>
		<layer id="239" name="Clip_16" type="Clamp" version="opset1">
			<data max="6" min="0"/>
			<input>
				<port id="0">
					<dim>1</dim>
					<dim>96</dim>
					<dim>64</dim>
					<dim>64</dim>
				</port>
			</input>
			<output>
				<port id="1" names="366" precision="FP16">
					<dim>1</dim>
					<dim>96</dim>
					<dim>64</dim>
					<dim>64</dim>
				</port>
			</output>
		</layer>
		<layer id="240" name="Conv_17/fq_input_0" type="FakeQuantize" version="opset1">
			<data auto_broadcast="numpy" levels="256"/>
			<input>
				<port id="0">
					<dim>1</dim>
					<dim>96</dim>
					<dim>64</dim>
					<dim>64</dim>
				</port>
				<port id="1"/>
				<port id="2"/>
				<port id="3"/>
				<port id="4"/>
			</input>
			<output>
				<port id="5" precision="FP16">
					<dim>1</dim>
					<dim>96</dim>
					<dim>64</dim>
					<dim>64</dim>
				</port>
			</output>
		</layer>
		<layer id="241" name="BatchNormalization_18/mean/Fused_Mul__copy4318133/quantized995912660" type="Const" version="opset1">
			<data element_type="i8" offset="19354" shape="24,96,1,1" size="2304"/>
			<output>
				<port id="0" precision="I8">
					<dim>24</dim>
					<dim>96</dim>
					<dim>1</dim>
					<dim>1</dim>
				</port>
			</output>
		</layer>
		<layer id="242" name="BatchNormalization_18/mean/Fused_Mul__copy4318133/quantized/to_f16" type="Convert" version="opset1">
			<data destination_type="f16"/>
			<input>
				<port id="0">
					<dim>24</dim>
					<dim>96</dim>
					<dim>1</dim>
					<dim>1</dim>
				</port>
			</input>
			<output>
				<port id="1" precision="FP16">
					<dim>24</dim>
					<dim>96</dim>
					<dim>1</dim>
					<dim>1</dim>
				</port>
			</output>
		</layer>
		<layer id="243" name="Conv_17/fq_weights_1/zero_point997213458" type="Const" version="opset1">
			<data element_type="f16" offset="21658" shape="24,1,1,1" size="48"/>
			<output>
				<port id="0" precision="FP16">
					<dim>24</dim>
					<dim>1</dim>
					<dim>1</dim>
					<dim>1</dim>
				</port>
			</output>
		</layer>
		<layer id="244" name="Conv_17/fq_weights_1/minus_zp" type="Subtract" version="opset1">
			<data auto_broadcast="numpy"/>
			<input>
				<port id="0">
					<dim>24</dim>
					<dim>96</dim>
					<dim>1</dim>
					<dim>1</dim>
				</port>
				<port id="1">
					<dim>24</dim>
					<dim>1</dim>
					<dim>1</dim>
					<dim>1</dim>
				</port>
			</input>
			<output>
				<port id="2" precision="FP16">
					<dim>24</dim>
					<dim>96</dim>
					<dim>1</dim>
					<dim>1</dim>
				</port>
			</output>
		</layer>
		<layer id="245" name="Conv_17/fq_weights_1/scale996713125" type="Const" version="opset1">
			<data element_type="f16" offset="21706" shape="24,1,1,1" size="48"/>
			<output>
				<port id="0" precision="FP16">
					<dim>24</dim>
					<dim>1</dim>
					<dim>1</dim>
					<dim>1</dim>
				</port>
			</output>
		</layer>
		<layer id="246" name="Conv_17/fq_weights_1/mulpiply_by_scale" type="Multiply" version="opset1">
			<data auto_broadcast="numpy"/>
			<input>
				<port id="0">
					<dim>24</dim>
					<dim>96</dim>
					<dim>1</dim>
					<dim>1</dim>
				</port>
				<port id="1">
					<dim>24</dim>
					<dim>1</dim>
					<dim>1</dim>
					<dim>1</dim>
				</port>
			</input>
			<output>
				<port id="2" precision="FP16">
					<dim>24</dim>
					<dim>96</dim>
					<dim>1</dim>
					<dim>1</dim>
				</port>
			</output>
		</layer>
		<layer id="247" name="Conv_17" type="Convolution" version="opset1">
			<data auto_pad="explicit" dilations="1,1" pads_begin="0,0" pads_end="0,0" strides="1,1"/>
			<input>
				<port id="0">
					<dim>1</dim>
					<dim>96</dim>
					<dim>64</dim>
					<dim>64</dim>
				</port>
				<port id="1">
					<dim>24</dim>
					<dim>96</dim>
					<dim>1</dim>
					<dim>1</dim>
				</port>
			</input>
			<output>
				<port id="2" precision="FP16">
					<dim>1</dim>
					<dim>24</dim>
					<dim>64</dim>
					<dim>64</dim>
				</port>
			</output>
		</layer>
		<layer id="248" name="data_add_119401194543312330" type="Const" version="opset1">
			<data element_type="f16" offset="21754" shape="1,24,1,1" size="48"/>
			<output>
				<port id="0" precision="FP16">
					<dim>1</dim>
					<dim>24</dim>
					<dim>1</dim>
					<dim>1</dim>
				</port>
			</output>
		</layer>
		<layer id="249" name="BatchNormalization_18/variance/Fused_Add_" type="Add" version="opset1">
			<data auto_broadcast="numpy"/>
			<input>
				<port id="0">
					<dim>1</dim>
					<dim>24</dim>
					<dim>64</dim>
					<dim>64</dim>
				</port>
				<port id="1">
					<dim>1</dim>
					<dim>24</dim>
					<dim>1</dim>
					<dim>1</dim>
				</port>
			</input>
			<output>
				<port id="2" names="368" precision="FP16">
					<dim>1</dim>
					<dim>24</dim>
					<dim>64</dim>
					<dim>64</dim>
				</port>
			</output>
		</layer>
		<layer id="250" name="Add_27/fq_input_1" type="FakeQuantize" version="opset1">
			<data auto_broadcast="numpy" levels="256"/>
			<input>
				<port id="0">
					<dim>1</dim>
					<dim>24</dim>
					<dim>64</dim>
					<dim>64</dim>
				</port>
				<port id="1"/>
				<port id="2"/>
				<port id="3"/>
				<port id="4"/>
			</input>
			<output>
				<port id="5" precision="FP16">
					<dim>1</dim>
					<dim>24</dim>
					<dim>64</dim>
					<dim>64</dim>
				</port>
			</output>
		</layer>
		<layer id="251" name="BatchNormalization_20/mean/Fused_Mul__copy4358135/quantized916713443" type="Const" version="opset1">
			<data element_type="i8" offset="21802" shape="144,24,1,1" size="3456"/>
			<output>
				<port id="0" precision="I8">
					<dim>144</dim>
					<dim>24</dim>
					<dim>1</dim>
					<dim>1</dim>
				</port>
			</output>
		</layer>
		<layer id="252" name="BatchNormalization_20/mean/Fused_Mul__copy4358135/quantized/to_f16" type="Convert" version="opset1">
			<data destination_type="f16"/>
			<input>
				<port id="0">
					<dim>144</dim>
					<dim>24</dim>
					<dim>1</dim>
					<dim>1</dim>
				</port>
			</input>
			<output>
				<port id="1" precision="FP16">
					<dim>144</dim>
					<dim>24</dim>
					<dim>1</dim>
					<dim>1</dim>
				</port>
			</output>
		</layer>
		<layer id="253" name="Conv_19/fq_weights_1/zero_point918013320" type="Const" version="opset1">
			<data element_type="f16" offset="25258" shape="144,1,1,1" size="288"/>
			<output>
				<port id="0" precision="FP16">
					<dim>144</dim>
					<dim>1</dim>
					<dim>1</dim>
					<dim>1</dim>
				</port>
			</output>
		</layer>
		<layer id="254" name="Conv_19/fq_weights_1/minus_zp" type="Subtract" version="opset1">
			<data auto_broadcast="numpy"/>
			<input>
				<port id="0">
					<dim>144</dim>
					<dim>24</dim>
					<dim>1</dim>
					<dim>1</dim>
				</port>
				<port id="1">
					<dim>144</dim>
					<dim>1</dim>
					<dim>1</dim>
					<dim>1</dim>
				</port>
			</input>
			<output>
				<port id="2" precision="FP16">
					<dim>144</dim>
					<dim>24</dim>
					<dim>1</dim>
					<dim>1</dim>
				</port>
			</output>
		</layer>
		<layer id="255" name="Conv_19/fq_weights_1/scale917512786" type="Const" version="opset1">
			<data element_type="f16" offset="25546" shape="144,1,1,1" size="288"/>
			<output>
				<port id="0" precision="FP16">
					<dim>144</dim>
					<dim>1</dim>
					<dim>1</dim>
					<dim>1</dim>
				</port>
			</output>
		</layer>
		<layer id="256" name="Conv_19/fq_weights_1/mulpiply_by_scale" type="Multiply" version="opset1">
			<data auto_broadcast="numpy"/>
			<input>
				<port id="0">
					<dim>144</dim>
					<dim>24</dim>
					<dim>1</dim>
					<dim>1</dim>
				</port>
				<port id="1">
					<dim>144</dim>
					<dim>1</dim>
					<dim>1</dim>
					<dim>1</dim>
				</port>
			</input>
			<output>
				<port id="2" precision="FP16">
					<dim>144</dim>
					<dim>24</dim>
					<dim>1</dim>
					<dim>1</dim>
				</port>
			</output>
		</layer>
		<layer id="257" name="Conv_19" type="Convolution" version="opset1">
			<data auto_pad="explicit" dilations="1,1" pads_begin="0,0" pads_end="0,0" strides="1,1"/>
			<input>
				<port id="0">
					<dim>1</dim>
					<dim>24</dim>
					<dim>64</dim>
					<dim>64</dim>
				</port>
				<port id="1">
					<dim>144</dim>
					<dim>24</dim>
					<dim>1</dim>
					<dim>1</dim>
				</port>
			</input>
			<output>
				<port id="2" precision="FP16">
					<dim>1</dim>
					<dim>144</dim>
					<dim>64</dim>
					<dim>64</dim>
				</port>
			</output>
		</layer>
		<layer id="258" name="data_add_119481195343712351" type="Const" version="opset1">
			<data element_type="f16" offset="25834" shape="1,144,1,1" size="288"/>
			<output>
				<port id="0" precision="FP16">
					<dim>1</dim>
					<dim>144</dim>
					<dim>1</dim>
					<dim>1</dim>
				</port>
			</output>
		</layer>
		<layer id="259" name="BatchNormalization_20/variance/Fused_Add_" type="Add" version="opset1">
			<data auto_broadcast="numpy"/>
			<input>
				<port id="0">
					<dim>1</dim>
					<dim>144</dim>
					<dim>64</dim>
					<dim>64</dim>
				</port>
				<port id="1">
					<dim>1</dim>
					<dim>144</dim>
					<dim>1</dim>
					<dim>1</dim>
				</port>
			</input>
			<output>
				<port id="2" names="370" precision="FP16">
					<dim>1</dim>
					<dim>144</dim>
					<dim>64</dim>
					<dim>64</dim>
				</port>
			</output>
		</layer>
		<layer id="260" name="Clip_21" type="Clamp" version="opset1">
			<data max="6" min="0"/>
			<input>
				<port id="0">
					<dim>1</dim>
					<dim>144</dim>
					<dim>64</dim>
					<dim>64</dim>
				</port>
			</input>
			<output>
				<port id="1" names="371" precision="FP16">
					<dim>1</dim>
					<dim>144</dim>
					<dim>64</dim>
					<dim>64</dim>
				</port>
			</output>
		</layer>
		<layer id="261" name="Conv_22/fq_input_0" type="FakeQuantize" version="opset1">
			<data auto_broadcast="numpy" levels="256"/>
			<input>
				<port id="0">
					<dim>1</dim>
					<dim>144</dim>
					<dim>64</dim>
					<dim>64</dim>
				</port>
				<port id="1">
					<dim>1</dim>
					<dim>144</dim>
					<dim>1</dim>
					<dim>1</dim>
				</port>
				<port id="2">
					<dim>1</dim>
					<dim>144</dim>
					<dim>1</dim>
					<dim>1</dim>
				</port>
				<port id="3">
					<dim>1</dim>
					<dim>144</dim>
					<dim>1</dim>
					<dim>1</dim>
				</port>
				<port id="4">
					<dim>1</dim>
					<dim>144</dim>
					<dim>1</dim>
					<dim>1</dim>
				</port>
			</input>
			<output>
				<port id="5" precision="FP16">
					<dim>1</dim>
					<dim>144</dim>
					<dim>64</dim>
					<dim>64</dim>
				</port>
			</output>
		</layer>
		<layer id="262" name="11202/value1120413386" type="Const" version="opset1">
			<data element_type="i64" offset="26122" shape="5" size="40"/>
			<output>
				<port id="0" precision="I64">
					<dim>5</dim>
				</port>
			</output>
		</layer>
		<layer id="263" name="BatchNormalization_23/mean/Fused_Mul__copy4408137/quantized971912951" type="Const" version="opset1">
			<data element_type="i8" offset="26162" shape="144,1,3,3" size="1296"/>
			<output>
				<port id="0" precision="I8">
					<dim>144</dim>
					<dim>1</dim>
					<dim>3</dim>
					<dim>3</dim>
				</port>
			</output>
		</layer>
		<layer id="264" name="BatchNormalization_23/mean/Fused_Mul__copy4408137/quantized/to_f16" type="Convert" version="opset1">
			<data destination_type="f16"/>
			<input>
				<port id="0">
					<dim>144</dim>
					<dim>1</dim>
					<dim>3</dim>
					<dim>3</dim>
				</port>
			</input>
			<output>
				<port id="1" precision="FP16">
					<dim>144</dim>
					<dim>1</dim>
					<dim>3</dim>
					<dim>3</dim>
				</port>
			</output>
		</layer>
		<layer id="265" name="Conv_22/fq_weights_1/zero_point973213299" type="Const" version="opset1">
			<data element_type="f16" offset="27458" shape="144,1,1,1" size="288"/>
			<output>
				<port id="0" precision="FP16">
					<dim>144</dim>
					<dim>1</dim>
					<dim>1</dim>
					<dim>1</dim>
				</port>
			</output>
		</layer>
		<layer id="266" name="Conv_22/fq_weights_1/minus_zp" type="Subtract" version="opset1">
			<data auto_broadcast="numpy"/>
			<input>
				<port id="0">
					<dim>144</dim>
					<dim>1</dim>
					<dim>3</dim>
					<dim>3</dim>
				</port>
				<port id="1">
					<dim>144</dim>
					<dim>1</dim>
					<dim>1</dim>
					<dim>1</dim>
				</port>
			</input>
			<output>
				<port id="2" precision="FP16">
					<dim>144</dim>
					<dim>1</dim>
					<dim>3</dim>
					<dim>3</dim>
				</port>
			</output>
		</layer>
		<layer id="267" name="Conv_22/fq_weights_1/scale972712741" type="Const" version="opset1">
			<data element_type="f16" offset="27746" shape="144,1,1,1" size="288"/>
			<output>
				<port id="0" precision="FP16">
					<dim>144</dim>
					<dim>1</dim>
					<dim>1</dim>
					<dim>1</dim>
				</port>
			</output>
		</layer>
		<layer id="268" name="Conv_22/fq_weights_1/mulpiply_by_scale" type="Multiply" version="opset1">
			<data auto_broadcast="numpy"/>
			<input>
				<port id="0">
					<dim>144</dim>
					<dim>1</dim>
					<dim>3</dim>
					<dim>3</dim>
				</port>
				<port id="1">
					<dim>144</dim>
					<dim>1</dim>
					<dim>1</dim>
					<dim>1</dim>
				</port>
			</input>
			<output>
				<port id="2" precision="FP16">
					<dim>144</dim>
					<dim>1</dim>
					<dim>3</dim>
					<dim>3</dim>
				</port>
			</output>
		</layer>
		<layer id="269" name="11202" type="Reshape" version="opset1">
			<data special_zero="true"/>
			<input>
				<port id="0">
					<dim>144</dim>
					<dim>1</dim>
					<dim>3</dim>
					<dim>3</dim>
				</port>
				<port id="1">
					<dim>5</dim>
				</port>
			</input>
			<output>
				<port id="2" precision="FP16">
					<dim>144</dim>
					<dim>1</dim>
					<dim>1</dim>
					<dim>3</dim>
					<dim>3</dim>
				</port>
			</output>
		</layer>
		<layer id="270" name="Conv_22" type="GroupConvolution" version="opset1">
			<data auto_pad="explicit" dilations="1,1" pads_begin="1,1" pads_end="1,1" strides="1,1"/>
			<input>
				<port id="0">
					<dim>1</dim>
					<dim>144</dim>
					<dim>64</dim>
					<dim>64</dim>
				</port>
				<port id="1">
					<dim>144</dim>
					<dim>1</dim>
					<dim>1</dim>
					<dim>3</dim>
					<dim>3</dim>
				</port>
			</input>
			<output>
				<port id="2" precision="FP16">
					<dim>1</dim>
					<dim>144</dim>
					<dim>64</dim>
					<dim>64</dim>
				</port>
			</output>
		</layer>
		<layer id="271" name="data_add_119561196144212627" type="Const" version="opset1">
			<data element_type="f16" offset="28034" shape="1,144,1,1" size="288"/>
			<output>
				<port id="0" precision="FP16">
					<dim>1</dim>
					<dim>144</dim>
					<dim>1</dim>
					<dim>1</dim>
				</port>
			</output>
		</layer>
		<layer id="272" name="BatchNormalization_23/variance/Fused_Add_" type="Add" version="opset1">
			<data auto_broadcast="numpy"/>
			<input>
				<port id="0">
					<dim>1</dim>
					<dim>144</dim>
					<dim>64</dim>
					<dim>64</dim>
				</port>
				<port id="1">
					<dim>1</dim>
					<dim>144</dim>
					<dim>1</dim>
					<dim>1</dim>
				</port>
			</input>
			<output>
				<port id="2" names="373" precision="FP16">
					<dim>1</dim>
					<dim>144</dim>
					<dim>64</dim>
					<dim>64</dim>
				</port>
			</output>
		</layer>
		<layer id="273" name="Clip_24" type="Clamp" version="opset1">
			<data max="6" min="0"/>
			<input>
				<port id="0">
					<dim>1</dim>
					<dim>144</dim>
					<dim>64</dim>
					<dim>64</dim>
				</port>
			</input>
			<output>
				<port id="1" names="374" precision="FP16">
					<dim>1</dim>
					<dim>144</dim>
					<dim>64</dim>
					<dim>64</dim>
				</port>
			</output>
		</layer>
		<layer id="274" name="Conv_25/fq_input_0" type="FakeQuantize" version="opset1">
			<data auto_broadcast="numpy" levels="256"/>
			<input>
				<port id="0">
					<dim>1</dim>
					<dim>144</dim>
					<dim>64</dim>
					<dim>64</dim>
				</port>
				<port id="1"/>
				<port id="2"/>
				<port id="3"/>
				<port id="4"/>
			</input>
			<output>
				<port id="5" precision="FP16">
					<dim>1</dim>
					<dim>144</dim>
					<dim>64</dim>
					<dim>64</dim>
				</port>
			</output>
		</layer>
		<layer id="275" name="BatchNormalization_26/mean/Fused_Mul__copy4458139/quantized923913944" type="Const" version="opset1">
			<data element_type="i8" offset="28322" shape="24,144,1,1" size="3456"/>
			<output>
				<port id="0" precision="I8">
					<dim>24</dim>
					<dim>144</dim>
					<dim>1</dim>
					<dim>1</dim>
				</port>
			</output>
		</layer>
		<layer id="276" name="BatchNormalization_26/mean/Fused_Mul__copy4458139/quantized/to_f16" type="Convert" version="opset1">
			<data destination_type="f16"/>
			<input>
				<port id="0">
					<dim>24</dim>
					<dim>144</dim>
					<dim>1</dim>
					<dim>1</dim>
				</port>
			</input>
			<output>
				<port id="1" precision="FP16">
					<dim>24</dim>
					<dim>144</dim>
					<dim>1</dim>
					<dim>1</dim>
				</port>
			</output>
		</layer>
		<layer id="277" name="Conv_25/fq_weights_1/zero_point925213413" type="Const" version="opset1">
			<data element_type="f16" offset="31778" shape="24,1,1,1" size="48"/>
			<output>
				<port id="0" precision="FP16">
					<dim>24</dim>
					<dim>1</dim>
					<dim>1</dim>
					<dim>1</dim>
				</port>
			</output>
		</layer>
		<layer id="278" name="Conv_25/fq_weights_1/minus_zp" type="Subtract" version="opset1">
			<data auto_broadcast="numpy"/>
			<input>
				<port id="0">
					<dim>24</dim>
					<dim>144</dim>
					<dim>1</dim>
					<dim>1</dim>
				</port>
				<port id="1">
					<dim>24</dim>
					<dim>1</dim>
					<dim>1</dim>
					<dim>1</dim>
				</port>
			</input>
			<output>
				<port id="2" precision="FP16">
					<dim>24</dim>
					<dim>144</dim>
					<dim>1</dim>
					<dim>1</dim>
				</port>
			</output>
		</layer>
		<layer id="279" name="Conv_25/fq_weights_1/scale924712435" type="Const" version="opset1">
			<data element_type="f16" offset="31826" shape="24,1,1,1" size="48"/>
			<output>
				<port id="0" precision="FP16">
					<dim>24</dim>
					<dim>1</dim>
					<dim>1</dim>
					<dim>1</dim>
				</port>
			</output>
		</layer>
		<layer id="280" name="Conv_25/fq_weights_1/mulpiply_by_scale" type="Multiply" version="opset1">
			<data auto_broadcast="numpy"/>
			<input>
				<port id="0">
					<dim>24</dim>
					<dim>144</dim>
					<dim>1</dim>
					<dim>1</dim>
				</port>
				<port id="1">
					<dim>24</dim>
					<dim>1</dim>
					<dim>1</dim>
					<dim>1</dim>
				</port>
			</input>
			<output>
				<port id="2" precision="FP16">
					<dim>24</dim>
					<dim>144</dim>
					<dim>1</dim>
					<dim>1</dim>
				</port>
			</output>
		</layer>
		<layer id="281" name="Conv_25" type="Convolution" version="opset1">
			<data auto_pad="explicit" dilations="1,1" pads_begin="0,0" pads_end="0,0" strides="1,1"/>
			<input>
				<port id="0">
					<dim>1</dim>
					<dim>144</dim>
					<dim>64</dim>
					<dim>64</dim>
				</port>
				<port id="1">
					<dim>24</dim>
					<dim>144</dim>
					<dim>1</dim>
					<dim>1</dim>
				</port>
			</input>
			<output>
				<port id="2" precision="FP16">
					<dim>1</dim>
					<dim>24</dim>
					<dim>64</dim>
					<dim>64</dim>
				</port>
			</output>
		</layer>
		<layer id="282" name="data_add_119641196944713431" type="Const" version="opset1">
			<data element_type="f16" offset="31874" shape="1,24,1,1" size="48"/>
			<output>
				<port id="0" precision="FP16">
					<dim>1</dim>
					<dim>24</dim>
					<dim>1</dim>
					<dim>1</dim>
				</port>
			</output>
		</layer>
		<layer id="283" name="BatchNormalization_26/variance/Fused_Add_" type="Add" version="opset1">
			<data auto_broadcast="numpy"/>
			<input>
				<port id="0">
					<dim>1</dim>
					<dim>24</dim>
					<dim>64</dim>
					<dim>64</dim>
				</port>
				<port id="1">
					<dim>1</dim>
					<dim>24</dim>
					<dim>1</dim>
					<dim>1</dim>
				</port>
			</input>
			<output>
				<port id="2" names="376" precision="FP16">
					<dim>1</dim>
					<dim>24</dim>
					<dim>64</dim>
					<dim>64</dim>
				</port>
			</output>
		</layer>
		<layer id="284" name="Add_27/fq_input_0" type="FakeQuantize" version="opset1">
			<data auto_broadcast="numpy" levels="256"/>
			<input>
				<port id="0">
					<dim>1</dim>
					<dim>24</dim>
					<dim>64</dim>
					<dim>64</dim>
				</port>
				<port id="1"/>
				<port id="2"/>
				<port id="3"/>
				<port id="4"/>
			</input>
			<output>
				<port id="5" precision="FP16">
					<dim>1</dim>
					<dim>24</dim>
					<dim>64</dim>
					<dim>64</dim>
				</port>
			</output>
		</layer>
		<layer id="285" name="Add_27" type="Add" version="opset1">
			<data auto_broadcast="numpy"/>
			<input>
				<port id="0">
					<dim>1</dim>
					<dim>24</dim>
					<dim>64</dim>
					<dim>64</dim>
				</port>
				<port id="1">
					<dim>1</dim>
					<dim>24</dim>
					<dim>64</dim>
					<dim>64</dim>
				</port>
			</input>
			<output>
				<port id="2" names="377" precision="FP16">
					<dim>1</dim>
					<dim>24</dim>
					<dim>64</dim>
					<dim>64</dim>
				</port>
			</output>
		</layer>
		<layer id="286" name="Conv_28/fq_input_0" type="FakeQuantize" version="opset1">
			<data auto_broadcast="numpy" levels="256"/>
			<input>
				<port id="0">
					<dim>1</dim>
					<dim>24</dim>
					<dim>64</dim>
					<dim>64</dim>
				</port>
				<port id="1"/>
				<port id="2"/>
				<port id="3"/>
				<port id="4"/>
			</input>
			<output>
				<port id="5" precision="FP16">
					<dim>1</dim>
					<dim>24</dim>
					<dim>64</dim>
					<dim>64</dim>
				</port>
			</output>
		</layer>
		<layer id="287" name="BatchNormalization_29/mean/Fused_Mul__copy4508141/quantized993513332" type="Const" version="opset1">
			<data element_type="i8" offset="31922" shape="144,24,1,1" size="3456"/>
			<output>
				<port id="0" precision="I8">
					<dim>144</dim>
					<dim>24</dim>
					<dim>1</dim>
					<dim>1</dim>
				</port>
			</output>
		</layer>
		<layer id="288" name="BatchNormalization_29/mean/Fused_Mul__copy4508141/quantized/to_f16" type="Convert" version="opset1">
			<data destination_type="f16"/>
			<input>
				<port id="0">
					<dim>144</dim>
					<dim>24</dim>
					<dim>1</dim>
					<dim>1</dim>
				</port>
			</input>
			<output>
				<port id="1" precision="FP16">
					<dim>144</dim>
					<dim>24</dim>
					<dim>1</dim>
					<dim>1</dim>
				</port>
			</output>
		</layer>
		<layer id="289" name="Conv_28/fq_weights_1/zero_point994812849" type="Const" version="opset1">
			<data element_type="f16" offset="35378" shape="144,1,1,1" size="288"/>
			<output>
				<port id="0" precision="FP16">
					<dim>144</dim>
					<dim>1</dim>
					<dim>1</dim>
					<dim>1</dim>
				</port>
			</output>
		</layer>
		<layer id="290" name="Conv_28/fq_weights_1/minus_zp" type="Subtract" version="opset1">
			<data auto_broadcast="numpy"/>
			<input>
				<port id="0">
					<dim>144</dim>
					<dim>24</dim>
					<dim>1</dim>
					<dim>1</dim>
				</port>
				<port id="1">
					<dim>144</dim>
					<dim>1</dim>
					<dim>1</dim>
					<dim>1</dim>
				</port>
			</input>
			<output>
				<port id="2" precision="FP16">
					<dim>144</dim>
					<dim>24</dim>
					<dim>1</dim>
					<dim>1</dim>
				</port>
			</output>
		</layer>
		<layer id="291" name="Conv_28/fq_weights_1/scale994313245" type="Const" version="opset1">
			<data element_type="f16" offset="35666" shape="144,1,1,1" size="288"/>
			<output>
				<port id="0" precision="FP16">
					<dim>144</dim>
					<dim>1</dim>
					<dim>1</dim>
					<dim>1</dim>
				</port>
			</output>
		</layer>
		<layer id="292" name="Conv_28/fq_weights_1/mulpiply_by_scale" type="Multiply" version="opset1">
			<data auto_broadcast="numpy"/>
			<input>
				<port id="0">
					<dim>144</dim>
					<dim>24</dim>
					<dim>1</dim>
					<dim>1</dim>
				</port>
				<port id="1">
					<dim>144</dim>
					<dim>1</dim>
					<dim>1</dim>
					<dim>1</dim>
				</port>
			</input>
			<output>
				<port id="2" precision="FP16">
					<dim>144</dim>
					<dim>24</dim>
					<dim>1</dim>
					<dim>1</dim>
				</port>
			</output>
		</layer>
		<layer id="293" name="Conv_28" type="Convolution" version="opset1">
			<data auto_pad="explicit" dilations="1,1" pads_begin="0,0" pads_end="0,0" strides="1,1"/>
			<input>
				<port id="0">
					<dim>1</dim>
					<dim>24</dim>
					<dim>64</dim>
					<dim>64</dim>
				</port>
				<port id="1">
					<dim>144</dim>
					<dim>24</dim>
					<dim>1</dim>
					<dim>1</dim>
				</port>
			</input>
			<output>
				<port id="2" precision="FP16">
					<dim>1</dim>
					<dim>144</dim>
					<dim>64</dim>
					<dim>64</dim>
				</port>
			</output>
		</layer>
		<layer id="294" name="data_add_119721197745212831" type="Const" version="opset1">
			<data element_type="f16" offset="35954" shape="1,144,1,1" size="288"/>
			<output>
				<port id="0" precision="FP16">
					<dim>1</dim>
					<dim>144</dim>
					<dim>1</dim>
					<dim>1</dim>
				</port>
			</output>
		</layer>
		<layer id="295" name="BatchNormalization_29/variance/Fused_Add_" type="Add" version="opset1">
			<data auto_broadcast="numpy"/>
			<input>
				<port id="0">
					<dim>1</dim>
					<dim>144</dim>
					<dim>64</dim>
					<dim>64</dim>
				</port>
				<port id="1">
					<dim>1</dim>
					<dim>144</dim>
					<dim>1</dim>
					<dim>1</dim>
				</port>
			</input>
			<output>
				<port id="2" names="379" precision="FP16">
					<dim>1</dim>
					<dim>144</dim>
					<dim>64</dim>
					<dim>64</dim>
				</port>
			</output>
		</layer>
		<layer id="296" name="Clip_30" type="Clamp" version="opset1">
			<data max="6" min="0"/>
			<input>
				<port id="0">
					<dim>1</dim>
					<dim>144</dim>
					<dim>64</dim>
					<dim>64</dim>
				</port>
			</input>
			<output>
				<port id="1" names="380" precision="FP16">
					<dim>1</dim>
					<dim>144</dim>
					<dim>64</dim>
					<dim>64</dim>
				</port>
			</output>
		</layer>
		<layer id="297" name="Conv_31/fq_input_0" type="FakeQuantize" version="opset1">
			<data auto_broadcast="numpy" levels="256"/>
			<input>
				<port id="0">
					<dim>1</dim>
					<dim>144</dim>
					<dim>64</dim>
					<dim>64</dim>
				</port>
				<port id="1">
					<dim>1</dim>
					<dim>144</dim>
					<dim>1</dim>
					<dim>1</dim>
				</port>
				<port id="2">
					<dim>1</dim>
					<dim>144</dim>
					<dim>1</dim>
					<dim>1</dim>
				</port>
				<port id="3">
					<dim>1</dim>
					<dim>144</dim>
					<dim>1</dim>
					<dim>1</dim>
				</port>
				<port id="4">
					<dim>1</dim>
					<dim>144</dim>
					<dim>1</dim>
					<dim>1</dim>
				</port>
			</input>
			<output>
				<port id="5" precision="FP16">
					<dim>1</dim>
					<dim>144</dim>
					<dim>64</dim>
					<dim>64</dim>
				</port>
			</output>
		</layer>
		<layer id="298" name="11186/value1118813860" type="Const" version="opset1">
			<data element_type="i64" offset="26122" shape="5" size="40"/>
			<output>
				<port id="0" precision="I64">
					<dim>5</dim>
				</port>
			</output>
		</layer>
		<layer id="299" name="BatchNormalization_32/mean/Fused_Mul__copy4558143/quantized1000713656" type="Const" version="opset1">
			<data element_type="i8" offset="36242" shape="144,1,3,3" size="1296"/>
			<output>
				<port id="0" precision="I8">
					<dim>144</dim>
					<dim>1</dim>
					<dim>3</dim>
					<dim>3</dim>
				</port>
			</output>
		</layer>
		<layer id="300" name="BatchNormalization_32/mean/Fused_Mul__copy4558143/quantized/to_f16" type="Convert" version="opset1">
			<data destination_type="f16"/>
			<input>
				<port id="0">
					<dim>144</dim>
					<dim>1</dim>
					<dim>3</dim>
					<dim>3</dim>
				</port>
			</input>
			<output>
				<port id="1" precision="FP16">
					<dim>144</dim>
					<dim>1</dim>
					<dim>3</dim>
					<dim>3</dim>
				</port>
			</output>
		</layer>
		<layer id="301" name="Conv_31/fq_weights_1/zero_point1002013014" type="Const" version="opset1">
			<data element_type="f16" offset="37538" shape="144,1,1,1" size="288"/>
			<output>
				<port id="0" precision="FP16">
					<dim>144</dim>
					<dim>1</dim>
					<dim>1</dim>
					<dim>1</dim>
				</port>
			</output>
		</layer>
		<layer id="302" name="Conv_31/fq_weights_1/minus_zp" type="Subtract" version="opset1">
			<data auto_broadcast="numpy"/>
			<input>
				<port id="0">
					<dim>144</dim>
					<dim>1</dim>
					<dim>3</dim>
					<dim>3</dim>
				</port>
				<port id="1">
					<dim>144</dim>
					<dim>1</dim>
					<dim>1</dim>
					<dim>1</dim>
				</port>
			</input>
			<output>
				<port id="2" precision="FP16">
					<dim>144</dim>
					<dim>1</dim>
					<dim>3</dim>
					<dim>3</dim>
				</port>
			</output>
		</layer>
		<layer id="303" name="Conv_31/fq_weights_1/scale1001513404" type="Const" version="opset1">
			<data element_type="f16" offset="37826" shape="144,1,1,1" size="288"/>
			<output>
				<port id="0" precision="FP16">
					<dim>144</dim>
					<dim>1</dim>
					<dim>1</dim>
					<dim>1</dim>
				</port>
			</output>
		</layer>
		<layer id="304" name="Conv_31/fq_weights_1/mulpiply_by_scale" type="Multiply" version="opset1">
			<data auto_broadcast="numpy"/>
			<input>
				<port id="0">
					<dim>144</dim>
					<dim>1</dim>
					<dim>3</dim>
					<dim>3</dim>
				</port>
				<port id="1">
					<dim>144</dim>
					<dim>1</dim>
					<dim>1</dim>
					<dim>1</dim>
				</port>
			</input>
			<output>
				<port id="2" precision="FP16">
					<dim>144</dim>
					<dim>1</dim>
					<dim>3</dim>
					<dim>3</dim>
				</port>
			</output>
		</layer>
		<layer id="305" name="11186" type="Reshape" version="opset1">
			<data special_zero="true"/>
			<input>
				<port id="0">
					<dim>144</dim>
					<dim>1</dim>
					<dim>3</dim>
					<dim>3</dim>
				</port>
				<port id="1">
					<dim>5</dim>
				</port>
			</input>
			<output>
				<port id="2" precision="FP16">
					<dim>144</dim>
					<dim>1</dim>
					<dim>1</dim>
					<dim>3</dim>
					<dim>3</dim>
				</port>
			</output>
		</layer>
		<layer id="306" name="Conv_31" type="GroupConvolution" version="opset1">
			<data auto_pad="explicit" dilations="1,1" pads_begin="1,1" pads_end="1,1" strides="2,2"/>
			<input>
				<port id="0">
					<dim>1</dim>
					<dim>144</dim>
					<dim>64</dim>
					<dim>64</dim>
				</port>
				<port id="1">
					<dim>144</dim>
					<dim>1</dim>
					<dim>1</dim>
					<dim>3</dim>
					<dim>3</dim>
				</port>
			</input>
			<output>
				<port id="2" precision="FP16">
					<dim>1</dim>
					<dim>144</dim>
					<dim>32</dim>
					<dim>32</dim>
				</port>
			</output>
		</layer>
		<layer id="307" name="data_add_119801198545713446" type="Const" version="opset1">
			<data element_type="f16" offset="38114" shape="1,144,1,1" size="288"/>
			<output>
				<port id="0" precision="FP16">
					<dim>1</dim>
					<dim>144</dim>
					<dim>1</dim>
					<dim>1</dim>
				</port>
			</output>
		</layer>
		<layer id="308" name="BatchNormalization_32/variance/Fused_Add_" type="Add" version="opset1">
			<data auto_broadcast="numpy"/>
			<input>
				<port id="0">
					<dim>1</dim>
					<dim>144</dim>
					<dim>32</dim>
					<dim>32</dim>
				</port>
				<port id="1">
					<dim>1</dim>
					<dim>144</dim>
					<dim>1</dim>
					<dim>1</dim>
				</port>
			</input>
			<output>
				<port id="2" names="382" precision="FP16">
					<dim>1</dim>
					<dim>144</dim>
					<dim>32</dim>
					<dim>32</dim>
				</port>
			</output>
		</layer>
		<layer id="309" name="Clip_33" type="Clamp" version="opset1">
			<data max="6" min="0"/>
			<input>
				<port id="0">
					<dim>1</dim>
					<dim>144</dim>
					<dim>32</dim>
					<dim>32</dim>
				</port>
			</input>
			<output>
				<port id="1" names="383" precision="FP16">
					<dim>1</dim>
					<dim>144</dim>
					<dim>32</dim>
					<dim>32</dim>
				</port>
			</output>
		</layer>
		<layer id="310" name="Conv_34/fq_input_0" type="FakeQuantize" version="opset1">
			<data auto_broadcast="numpy" levels="256"/>
			<input>
				<port id="0">
					<dim>1</dim>
					<dim>144</dim>
					<dim>32</dim>
					<dim>32</dim>
				</port>
				<port id="1"/>
				<port id="2"/>
				<port id="3"/>
				<port id="4"/>
			</input>
			<output>
				<port id="5" precision="FP16">
					<dim>1</dim>
					<dim>144</dim>
					<dim>32</dim>
					<dim>32</dim>
				</port>
			</output>
		</layer>
		<layer id="311" name="BatchNormalization_35/mean/Fused_Mul__copy4608145/quantized914313722" type="Const" version="opset1">
			<data element_type="i8" offset="38402" shape="32,144,1,1" size="4608"/>
			<output>
				<port id="0" precision="I8">
					<dim>32</dim>
					<dim>144</dim>
					<dim>1</dim>
					<dim>1</dim>
				</port>
			</output>
		</layer>
		<layer id="312" name="BatchNormalization_35/mean/Fused_Mul__copy4608145/quantized/to_f16" type="Convert" version="opset1">
			<data destination_type="f16"/>
			<input>
				<port id="0">
					<dim>32</dim>
					<dim>144</dim>
					<dim>1</dim>
					<dim>1</dim>
				</port>
			</input>
			<output>
				<port id="1" precision="FP16">
					<dim>32</dim>
					<dim>144</dim>
					<dim>1</dim>
					<dim>1</dim>
				</port>
			</output>
		</layer>
		<layer id="313" name="Conv_34/fq_weights_1/zero_point915613794" type="Const" version="opset1">
			<data element_type="f16" offset="43010" shape="32,1,1,1" size="64"/>
			<output>
				<port id="0" precision="FP16">
					<dim>32</dim>
					<dim>1</dim>
					<dim>1</dim>
					<dim>1</dim>
				</port>
			</output>
		</layer>
		<layer id="314" name="Conv_34/fq_weights_1/minus_zp" type="Subtract" version="opset1">
			<data auto_broadcast="numpy"/>
			<input>
				<port id="0">
					<dim>32</dim>
					<dim>144</dim>
					<dim>1</dim>
					<dim>1</dim>
				</port>
				<port id="1">
					<dim>32</dim>
					<dim>1</dim>
					<dim>1</dim>
					<dim>1</dim>
				</port>
			</input>
			<output>
				<port id="2" precision="FP16">
					<dim>32</dim>
					<dim>144</dim>
					<dim>1</dim>
					<dim>1</dim>
				</port>
			</output>
		</layer>
		<layer id="315" name="Conv_34/fq_weights_1/scale915112897" type="Const" version="opset1">
			<data element_type="f16" offset="43074" shape="32,1,1,1" size="64"/>
			<output>
				<port id="0" precision="FP16">
					<dim>32</dim>
					<dim>1</dim>
					<dim>1</dim>
					<dim>1</dim>
				</port>
			</output>
		</layer>
		<layer id="316" name="Conv_34/fq_weights_1/mulpiply_by_scale" type="Multiply" version="opset1">
			<data auto_broadcast="numpy"/>
			<input>
				<port id="0">
					<dim>32</dim>
					<dim>144</dim>
					<dim>1</dim>
					<dim>1</dim>
				</port>
				<port id="1">
					<dim>32</dim>
					<dim>1</dim>
					<dim>1</dim>
					<dim>1</dim>
				</port>
			</input>
			<output>
				<port id="2" precision="FP16">
					<dim>32</dim>
					<dim>144</dim>
					<dim>1</dim>
					<dim>1</dim>
				</port>
			</output>
		</layer>
		<layer id="317" name="Conv_34" type="Convolution" version="opset1">
			<data auto_pad="explicit" dilations="1,1" pads_begin="0,0" pads_end="0,0" strides="1,1"/>
			<input>
				<port id="0">
					<dim>1</dim>
					<dim>144</dim>
					<dim>32</dim>
					<dim>32</dim>
				</port>
				<port id="1">
					<dim>32</dim>
					<dim>144</dim>
					<dim>1</dim>
					<dim>1</dim>
				</port>
			</input>
			<output>
				<port id="2" precision="FP16">
					<dim>1</dim>
					<dim>32</dim>
					<dim>32</dim>
					<dim>32</dim>
				</port>
			</output>
		</layer>
		<layer id="318" name="data_add_119881199346213815" type="Const" version="opset1">
			<data element_type="f16" offset="43138" shape="1,32,1,1" size="64"/>
			<output>
				<port id="0" precision="FP16">
					<dim>1</dim>
					<dim>32</dim>
					<dim>1</dim>
					<dim>1</dim>
				</port>
			</output>
		</layer>
		<layer id="319" name="BatchNormalization_35/variance/Fused_Add_" type="Add" version="opset1">
			<data auto_broadcast="numpy"/>
			<input>
				<port id="0">
					<dim>1</dim>
					<dim>32</dim>
					<dim>32</dim>
					<dim>32</dim>
				</port>
				<port id="1">
					<dim>1</dim>
					<dim>32</dim>
					<dim>1</dim>
					<dim>1</dim>
				</port>
			</input>
			<output>
				<port id="2" names="385" precision="FP16">
					<dim>1</dim>
					<dim>32</dim>
					<dim>32</dim>
					<dim>32</dim>
				</port>
			</output>
		</layer>
		<layer id="320" name="Add_44/fq_input_1" type="FakeQuantize" version="opset1">
			<data auto_broadcast="numpy" levels="256"/>
			<input>
				<port id="0">
					<dim>1</dim>
					<dim>32</dim>
					<dim>32</dim>
					<dim>32</dim>
				</port>
				<port id="1"/>
				<port id="2"/>
				<port id="3"/>
				<port id="4"/>
			</input>
			<output>
				<port id="5" precision="FP16">
					<dim>1</dim>
					<dim>32</dim>
					<dim>32</dim>
					<dim>32</dim>
				</port>
			</output>
		</layer>
		<layer id="321" name="BatchNormalization_37/mean/Fused_Mul__copy4648147/quantized899913611" type="Const" version="opset1">
			<data element_type="i8" offset="43202" shape="192,32,1,1" size="6144"/>
			<output>
				<port id="0" precision="I8">
					<dim>192</dim>
					<dim>32</dim>
					<dim>1</dim>
					<dim>1</dim>
				</port>
			</output>
		</layer>
		<layer id="322" name="BatchNormalization_37/mean/Fused_Mul__copy4648147/quantized/to_f16" type="Convert" version="opset1">
			<data destination_type="f16"/>
			<input>
				<port id="0">
					<dim>192</dim>
					<dim>32</dim>
					<dim>1</dim>
					<dim>1</dim>
				</port>
			</input>
			<output>
				<port id="1" precision="FP16">
					<dim>192</dim>
					<dim>32</dim>
					<dim>1</dim>
					<dim>1</dim>
				</port>
			</output>
		</layer>
		<layer id="323" name="Conv_36/fq_weights_1/zero_point901213470" type="Const" version="opset1">
			<data element_type="f16" offset="49346" shape="192,1,1,1" size="384"/>
			<output>
				<port id="0" precision="FP16">
					<dim>192</dim>
					<dim>1</dim>
					<dim>1</dim>
					<dim>1</dim>
				</port>
			</output>
		</layer>
		<layer id="324" name="Conv_36/fq_weights_1/minus_zp" type="Subtract" version="opset1">
			<data auto_broadcast="numpy"/>
			<input>
				<port id="0">
					<dim>192</dim>
					<dim>32</dim>
					<dim>1</dim>
					<dim>1</dim>
				</port>
				<port id="1">
					<dim>192</dim>
					<dim>1</dim>
					<dim>1</dim>
					<dim>1</dim>
				</port>
			</input>
			<output>
				<port id="2" precision="FP16">
					<dim>192</dim>
					<dim>32</dim>
					<dim>1</dim>
					<dim>1</dim>
				</port>
			</output>
		</layer>
		<layer id="325" name="Conv_36/fq_weights_1/scale900713440" type="Const" version="opset1">
			<data element_type="f16" offset="49730" shape="192,1,1,1" size="384"/>
			<output>
				<port id="0" precision="FP16">
					<dim>192</dim>
					<dim>1</dim>
					<dim>1</dim>
					<dim>1</dim>
				</port>
			</output>
		</layer>
		<layer id="326" name="Conv_36/fq_weights_1/mulpiply_by_scale" type="Multiply" version="opset1">
			<data auto_broadcast="numpy"/>
			<input>
				<port id="0">
					<dim>192</dim>
					<dim>32</dim>
					<dim>1</dim>
					<dim>1</dim>
				</port>
				<port id="1">
					<dim>192</dim>
					<dim>1</dim>
					<dim>1</dim>
					<dim>1</dim>
				</port>
			</input>
			<output>
				<port id="2" precision="FP16">
					<dim>192</dim>
					<dim>32</dim>
					<dim>1</dim>
					<dim>1</dim>
				</port>
			</output>
		</layer>
		<layer id="327" name="Conv_36" type="Convolution" version="opset1">
			<data auto_pad="explicit" dilations="1,1" pads_begin="0,0" pads_end="0,0" strides="1,1"/>
			<input>
				<port id="0">
					<dim>1</dim>
					<dim>32</dim>
					<dim>32</dim>
					<dim>32</dim>
				</port>
				<port id="1">
					<dim>192</dim>
					<dim>32</dim>
					<dim>1</dim>
					<dim>1</dim>
				</port>
			</input>
			<output>
				<port id="2" precision="FP16">
					<dim>1</dim>
					<dim>192</dim>
					<dim>32</dim>
					<dim>32</dim>
				</port>
			</output>
		</layer>
		<layer id="328" name="data_add_119961200146613317" type="Const" version="opset1">
			<data element_type="f16" offset="50114" shape="1,192,1,1" size="384"/>
			<output>
				<port id="0" precision="FP16">
					<dim>1</dim>
					<dim>192</dim>
					<dim>1</dim>
					<dim>1</dim>
				</port>
			</output>
		</layer>
		<layer id="329" name="BatchNormalization_37/variance/Fused_Add_" type="Add" version="opset1">
			<data auto_broadcast="numpy"/>
			<input>
				<port id="0">
					<dim>1</dim>
					<dim>192</dim>
					<dim>32</dim>
					<dim>32</dim>
				</port>
				<port id="1">
					<dim>1</dim>
					<dim>192</dim>
					<dim>1</dim>
					<dim>1</dim>
				</port>
			</input>
			<output>
				<port id="2" names="387" precision="FP16">
					<dim>1</dim>
					<dim>192</dim>
					<dim>32</dim>
					<dim>32</dim>
				</port>
			</output>
		</layer>
		<layer id="330" name="Clip_38" type="Clamp" version="opset1">
			<data max="6" min="0"/>
			<input>
				<port id="0">
					<dim>1</dim>
					<dim>192</dim>
					<dim>32</dim>
					<dim>32</dim>
				</port>
			</input>
			<output>
				<port id="1" names="388" precision="FP16">
					<dim>1</dim>
					<dim>192</dim>
					<dim>32</dim>
					<dim>32</dim>
				</port>
			</output>
		</layer>
		<layer id="331" name="Conv_39/fq_input_0" type="FakeQuantize" version="opset1">
			<data auto_broadcast="numpy" levels="256"/>
			<input>
				<port id="0">
					<dim>1</dim>
					<dim>192</dim>
					<dim>32</dim>
					<dim>32</dim>
				</port>
				<port id="1">
					<dim>1</dim>
					<dim>192</dim>
					<dim>1</dim>
					<dim>1</dim>
				</port>
				<port id="2">
					<dim>1</dim>
					<dim>192</dim>
					<dim>1</dim>
					<dim>1</dim>
				</port>
				<port id="3">
					<dim>1</dim>
					<dim>192</dim>
					<dim>1</dim>
					<dim>1</dim>
				</port>
				<port id="4">
					<dim>1</dim>
					<dim>192</dim>
					<dim>1</dim>
					<dim>1</dim>
				</port>
			</input>
			<output>
				<port id="5" precision="FP16">
					<dim>1</dim>
					<dim>192</dim>
					<dim>32</dim>
					<dim>32</dim>
				</port>
			</output>
		</layer>
		<layer id="332" name="11174/value1117613800" type="Const" version="opset1">
			<data element_type="i64" offset="50498" shape="5" size="40"/>
			<output>
				<port id="0" precision="I64">
					<dim>5</dim>
				</port>
			</output>
		</layer>
		<layer id="333" name="BatchNormalization_40/mean/Fused_Mul__copy4698149/quantized969512783" type="Const" version="opset1">
			<data element_type="i8" offset="50538" shape="192,1,3,3" size="1728"/>
			<output>
				<port id="0" precision="I8">
					<dim>192</dim>
					<dim>1</dim>
					<dim>3</dim>
					<dim>3</dim>
				</port>
			</output>
		</layer>
		<layer id="334" name="BatchNormalization_40/mean/Fused_Mul__copy4698149/quantized/to_f16" type="Convert" version="opset1">
			<data destination_type="f16"/>
			<input>
				<port id="0">
					<dim>192</dim>
					<dim>1</dim>
					<dim>3</dim>
					<dim>3</dim>
				</port>
			</input>
			<output>
				<port id="1" precision="FP16">
					<dim>192</dim>
					<dim>1</dim>
					<dim>3</dim>
					<dim>3</dim>
				</port>
			</output>
		</layer>
		<layer id="335" name="Conv_39/fq_weights_1/zero_point970813266" type="Const" version="opset1">
			<data element_type="f16" offset="52266" shape="192,1,1,1" size="384"/>
			<output>
				<port id="0" precision="FP16">
					<dim>192</dim>
					<dim>1</dim>
					<dim>1</dim>
					<dim>1</dim>
				</port>
			</output>
		</layer>
		<layer id="336" name="Conv_39/fq_weights_1/minus_zp" type="Subtract" version="opset1">
			<data auto_broadcast="numpy"/>
			<input>
				<port id="0">
					<dim>192</dim>
					<dim>1</dim>
					<dim>3</dim>
					<dim>3</dim>
				</port>
				<port id="1">
					<dim>192</dim>
					<dim>1</dim>
					<dim>1</dim>
					<dim>1</dim>
				</port>
			</input>
			<output>
				<port id="2" precision="FP16">
					<dim>192</dim>
					<dim>1</dim>
					<dim>3</dim>
					<dim>3</dim>
				</port>
			</output>
		</layer>
		<layer id="337" name="Conv_39/fq_weights_1/scale970312645" type="Const" version="opset1">
			<data element_type="f16" offset="52650" shape="192,1,1,1" size="384"/>
			<output>
				<port id="0" precision="FP16">
					<dim>192</dim>
					<dim>1</dim>
					<dim>1</dim>
					<dim>1</dim>
				</port>
			</output>
		</layer>
		<layer id="338" name="Conv_39/fq_weights_1/mulpiply_by_scale" type="Multiply" version="opset1">
			<data auto_broadcast="numpy"/>
			<input>
				<port id="0">
					<dim>192</dim>
					<dim>1</dim>
					<dim>3</dim>
					<dim>3</dim>
				</port>
				<port id="1">
					<dim>192</dim>
					<dim>1</dim>
					<dim>1</dim>
					<dim>1</dim>
				</port>
			</input>
			<output>
				<port id="2" precision="FP16">
					<dim>192</dim>
					<dim>1</dim>
					<dim>3</dim>
					<dim>3</dim>
				</port>
			</output>
		</layer>
		<layer id="339" name="11174" type="Reshape" version="opset1">
			<data special_zero="true"/>
			<input>
				<port id="0">
					<dim>192</dim>
					<dim>1</dim>
					<dim>3</dim>
					<dim>3</dim>
				</port>
				<port id="1">
					<dim>5</dim>
				</port>
			</input>
			<output>
				<port id="2" precision="FP16">
					<dim>192</dim>
					<dim>1</dim>
					<dim>1</dim>
					<dim>3</dim>
					<dim>3</dim>
				</port>
			</output>
		</layer>
		<layer id="340" name="Conv_39" type="GroupConvolution" version="opset1">
			<data auto_pad="explicit" dilations="1,1" pads_begin="1,1" pads_end="1,1" strides="1,1"/>
			<input>
				<port id="0">
					<dim>1</dim>
					<dim>192</dim>
					<dim>32</dim>
					<dim>32</dim>
				</port>
				<port id="1">
					<dim>192</dim>
					<dim>1</dim>
					<dim>1</dim>
					<dim>3</dim>
					<dim>3</dim>
				</port>
			</input>
			<output>
				<port id="2" precision="FP16">
					<dim>1</dim>
					<dim>192</dim>
					<dim>32</dim>
					<dim>32</dim>
				</port>
			</output>
		</layer>
		<layer id="341" name="data_add_120041200947112327" type="Const" version="opset1">
			<data element_type="f16" offset="53034" shape="1,192,1,1" size="384"/>
			<output>
				<port id="0" precision="FP16">
					<dim>1</dim>
					<dim>192</dim>
					<dim>1</dim>
					<dim>1</dim>
				</port>
			</output>
		</layer>
		<layer id="342" name="BatchNormalization_40/variance/Fused_Add_" type="Add" version="opset1">
			<data auto_broadcast="numpy"/>
			<input>
				<port id="0">
					<dim>1</dim>
					<dim>192</dim>
					<dim>32</dim>
					<dim>32</dim>
				</port>
				<port id="1">
					<dim>1</dim>
					<dim>192</dim>
					<dim>1</dim>
					<dim>1</dim>
				</port>
			</input>
			<output>
				<port id="2" names="390" precision="FP16">
					<dim>1</dim>
					<dim>192</dim>
					<dim>32</dim>
					<dim>32</dim>
				</port>
			</output>
		</layer>
		<layer id="343" name="Clip_41" type="Clamp" version="opset1">
			<data max="6" min="0"/>
			<input>
				<port id="0">
					<dim>1</dim>
					<dim>192</dim>
					<dim>32</dim>
					<dim>32</dim>
				</port>
			</input>
			<output>
				<port id="1" names="391" precision="FP16">
					<dim>1</dim>
					<dim>192</dim>
					<dim>32</dim>
					<dim>32</dim>
				</port>
			</output>
		</layer>
		<layer id="344" name="Conv_42/fq_input_0" type="FakeQuantize" version="opset1">
			<data auto_broadcast="numpy" levels="256"/>
			<input>
				<port id="0">
					<dim>1</dim>
					<dim>192</dim>
					<dim>32</dim>
					<dim>32</dim>
				</port>
				<port id="1"/>
				<port id="2"/>
				<port id="3"/>
				<port id="4"/>
			</input>
			<output>
				<port id="5" precision="FP16">
					<dim>1</dim>
					<dim>192</dim>
					<dim>32</dim>
					<dim>32</dim>
				</port>
			</output>
		</layer>
		<layer id="345" name="BatchNormalization_43/mean/Fused_Mul__copy4748151/quantized875913467" type="Const" version="opset1">
			<data element_type="i8" offset="53418" shape="32,192,1,1" size="6144"/>
			<output>
				<port id="0" precision="I8">
					<dim>32</dim>
					<dim>192</dim>
					<dim>1</dim>
					<dim>1</dim>
				</port>
			</output>
		</layer>
		<layer id="346" name="BatchNormalization_43/mean/Fused_Mul__copy4748151/quantized/to_f16" type="Convert" version="opset1">
			<data destination_type="f16"/>
			<input>
				<port id="0">
					<dim>32</dim>
					<dim>192</dim>
					<dim>1</dim>
					<dim>1</dim>
				</port>
			</input>
			<output>
				<port id="1" precision="FP16">
					<dim>32</dim>
					<dim>192</dim>
					<dim>1</dim>
					<dim>1</dim>
				</port>
			</output>
		</layer>
		<layer id="347" name="Conv_42/fq_weights_1/zero_point877212609" type="Const" version="opset1">
			<data element_type="f16" offset="59562" shape="32,1,1,1" size="64"/>
			<output>
				<port id="0" precision="FP16">
					<dim>32</dim>
					<dim>1</dim>
					<dim>1</dim>
					<dim>1</dim>
				</port>
			</output>
		</layer>
		<layer id="348" name="Conv_42/fq_weights_1/minus_zp" type="Subtract" version="opset1">
			<data auto_broadcast="numpy"/>
			<input>
				<port id="0">
					<dim>32</dim>
					<dim>192</dim>
					<dim>1</dim>
					<dim>1</dim>
				</port>
				<port id="1">
					<dim>32</dim>
					<dim>1</dim>
					<dim>1</dim>
					<dim>1</dim>
				</port>
			</input>
			<output>
				<port id="2" precision="FP16">
					<dim>32</dim>
					<dim>192</dim>
					<dim>1</dim>
					<dim>1</dim>
				</port>
			</output>
		</layer>
		<layer id="349" name="Conv_42/fq_weights_1/scale876713491" type="Const" version="opset1">
			<data element_type="f16" offset="59626" shape="32,1,1,1" size="64"/>
			<output>
				<port id="0" precision="FP16">
					<dim>32</dim>
					<dim>1</dim>
					<dim>1</dim>
					<dim>1</dim>
				</port>
			</output>
		</layer>
		<layer id="350" name="Conv_42/fq_weights_1/mulpiply_by_scale" type="Multiply" version="opset1">
			<data auto_broadcast="numpy"/>
			<input>
				<port id="0">
					<dim>32</dim>
					<dim>192</dim>
					<dim>1</dim>
					<dim>1</dim>
				</port>
				<port id="1">
					<dim>32</dim>
					<dim>1</dim>
					<dim>1</dim>
					<dim>1</dim>
				</port>
			</input>
			<output>
				<port id="2" precision="FP16">
					<dim>32</dim>
					<dim>192</dim>
					<dim>1</dim>
					<dim>1</dim>
				</port>
			</output>
		</layer>
		<layer id="351" name="Conv_42" type="Convolution" version="opset1">
			<data auto_pad="explicit" dilations="1,1" pads_begin="0,0" pads_end="0,0" strides="1,1"/>
			<input>
				<port id="0">
					<dim>1</dim>
					<dim>192</dim>
					<dim>32</dim>
					<dim>32</dim>
				</port>
				<port id="1">
					<dim>32</dim>
					<dim>192</dim>
					<dim>1</dim>
					<dim>1</dim>
				</port>
			</input>
			<output>
				<port id="2" precision="FP16">
					<dim>1</dim>
					<dim>32</dim>
					<dim>32</dim>
					<dim>32</dim>
				</port>
			</output>
		</layer>
		<layer id="352" name="data_add_120121201747612591" type="Const" version="opset1">
			<data element_type="f16" offset="59690" shape="1,32,1,1" size="64"/>
			<output>
				<port id="0" precision="FP16">
					<dim>1</dim>
					<dim>32</dim>
					<dim>1</dim>
					<dim>1</dim>
				</port>
			</output>
		</layer>
		<layer id="353" name="BatchNormalization_43/variance/Fused_Add_" type="Add" version="opset1">
			<data auto_broadcast="numpy"/>
			<input>
				<port id="0">
					<dim>1</dim>
					<dim>32</dim>
					<dim>32</dim>
					<dim>32</dim>
				</port>
				<port id="1">
					<dim>1</dim>
					<dim>32</dim>
					<dim>1</dim>
					<dim>1</dim>
				</port>
			</input>
			<output>
				<port id="2" names="393" precision="FP16">
					<dim>1</dim>
					<dim>32</dim>
					<dim>32</dim>
					<dim>32</dim>
				</port>
			</output>
		</layer>
		<layer id="354" name="Add_44/fq_input_0" type="FakeQuantize" version="opset1">
			<data auto_broadcast="numpy" levels="256"/>
			<input>
				<port id="0">
					<dim>1</dim>
					<dim>32</dim>
					<dim>32</dim>
					<dim>32</dim>
				</port>
				<port id="1"/>
				<port id="2"/>
				<port id="3"/>
				<port id="4"/>
			</input>
			<output>
				<port id="5" precision="FP16">
					<dim>1</dim>
					<dim>32</dim>
					<dim>32</dim>
					<dim>32</dim>
				</port>
			</output>
		</layer>
		<layer id="355" name="Add_44" type="Add" version="opset1">
			<data auto_broadcast="numpy"/>
			<input>
				<port id="0">
					<dim>1</dim>
					<dim>32</dim>
					<dim>32</dim>
					<dim>32</dim>
				</port>
				<port id="1">
					<dim>1</dim>
					<dim>32</dim>
					<dim>32</dim>
					<dim>32</dim>
				</port>
			</input>
			<output>
				<port id="2" names="394" precision="FP16">
					<dim>1</dim>
					<dim>32</dim>
					<dim>32</dim>
					<dim>32</dim>
				</port>
			</output>
		</layer>
		<layer id="356" name="Add_53/fq_input_1" type="FakeQuantize" version="opset1">
			<data auto_broadcast="numpy" levels="256"/>
			<input>
				<port id="0">
					<dim>1</dim>
					<dim>32</dim>
					<dim>32</dim>
					<dim>32</dim>
				</port>
				<port id="1"/>
				<port id="2"/>
				<port id="3"/>
				<port id="4"/>
			</input>
			<output>
				<port id="5" precision="FP16">
					<dim>1</dim>
					<dim>32</dim>
					<dim>32</dim>
					<dim>32</dim>
				</port>
			</output>
		</layer>
		<layer id="357" name="BatchNormalization_46/mean/Fused_Mul__copy4798153/quantized981513425" type="Const" version="opset1">
			<data element_type="i8" offset="59754" shape="192,32,1,1" size="6144"/>
			<output>
				<port id="0" precision="I8">
					<dim>192</dim>
					<dim>32</dim>
					<dim>1</dim>
					<dim>1</dim>
				</port>
			</output>
		</layer>
		<layer id="358" name="BatchNormalization_46/mean/Fused_Mul__copy4798153/quantized/to_f16" type="Convert" version="opset1">
			<data destination_type="f16"/>
			<input>
				<port id="0">
					<dim>192</dim>
					<dim>32</dim>
					<dim>1</dim>
					<dim>1</dim>
				</port>
			</input>
			<output>
				<port id="1" precision="FP16">
					<dim>192</dim>
					<dim>32</dim>
					<dim>1</dim>
					<dim>1</dim>
				</port>
			</output>
		</layer>
		<layer id="359" name="Conv_45/fq_weights_1/zero_point982812876" type="Const" version="opset1">
			<data element_type="f16" offset="65898" shape="192,1,1,1" size="384"/>
			<output>
				<port id="0" precision="FP16">
					<dim>192</dim>
					<dim>1</dim>
					<dim>1</dim>
					<dim>1</dim>
				</port>
			</output>
		</layer>
		<layer id="360" name="Conv_45/fq_weights_1/minus_zp" type="Subtract" version="opset1">
			<data auto_broadcast="numpy"/>
			<input>
				<port id="0">
					<dim>192</dim>
					<dim>32</dim>
					<dim>1</dim>
					<dim>1</dim>
				</port>
				<port id="1">
					<dim>192</dim>
					<dim>1</dim>
					<dim>1</dim>
					<dim>1</dim>
				</port>
			</input>
			<output>
				<port id="2" precision="FP16">
					<dim>192</dim>
					<dim>32</dim>
					<dim>1</dim>
					<dim>1</dim>
				</port>
			</output>
		</layer>
		<layer id="361" name="Conv_45/fq_weights_1/scale982313530" type="Const" version="opset1">
			<data element_type="f16" offset="66282" shape="192,1,1,1" size="384"/>
			<output>
				<port id="0" precision="FP16">
					<dim>192</dim>
					<dim>1</dim>
					<dim>1</dim>
					<dim>1</dim>
				</port>
			</output>
		</layer>
		<layer id="362" name="Conv_45/fq_weights_1/mulpiply_by_scale" type="Multiply" version="opset1">
			<data auto_broadcast="numpy"/>
			<input>
				<port id="0">
					<dim>192</dim>
					<dim>32</dim>
					<dim>1</dim>
					<dim>1</dim>
				</port>
				<port id="1">
					<dim>192</dim>
					<dim>1</dim>
					<dim>1</dim>
					<dim>1</dim>
				</port>
			</input>
			<output>
				<port id="2" precision="FP16">
					<dim>192</dim>
					<dim>32</dim>
					<dim>1</dim>
					<dim>1</dim>
				</port>
			</output>
		</layer>
		<layer id="363" name="Conv_45" type="Convolution" version="opset1">
			<data auto_pad="explicit" dilations="1,1" pads_begin="0,0" pads_end="0,0" strides="1,1"/>
			<input>
				<port id="0">
					<dim>1</dim>
					<dim>32</dim>
					<dim>32</dim>
					<dim>32</dim>
				</port>
				<port id="1">
					<dim>192</dim>
					<dim>32</dim>
					<dim>1</dim>
					<dim>1</dim>
				</port>
			</input>
			<output>
				<port id="2" precision="FP16">
					<dim>1</dim>
					<dim>192</dim>
					<dim>32</dim>
					<dim>32</dim>
				</port>
			</output>
		</layer>
		<layer id="364" name="data_add_120201202548112612" type="Const" version="opset1">
			<data element_type="f16" offset="66666" shape="1,192,1,1" size="384"/>
			<output>
				<port id="0" precision="FP16">
					<dim>1</dim>
					<dim>192</dim>
					<dim>1</dim>
					<dim>1</dim>
				</port>
			</output>
		</layer>
		<layer id="365" name="BatchNormalization_46/variance/Fused_Add_" type="Add" version="opset1">
			<data auto_broadcast="numpy"/>
			<input>
				<port id="0">
					<dim>1</dim>
					<dim>192</dim>
					<dim>32</dim>
					<dim>32</dim>
				</port>
				<port id="1">
					<dim>1</dim>
					<dim>192</dim>
					<dim>1</dim>
					<dim>1</dim>
				</port>
			</input>
			<output>
				<port id="2" names="396" precision="FP16">
					<dim>1</dim>
					<dim>192</dim>
					<dim>32</dim>
					<dim>32</dim>
				</port>
			</output>
		</layer>
		<layer id="366" name="Clip_47" type="Clamp" version="opset1">
			<data max="6" min="0"/>
			<input>
				<port id="0">
					<dim>1</dim>
					<dim>192</dim>
					<dim>32</dim>
					<dim>32</dim>
				</port>
			</input>
			<output>
				<port id="1" names="397" precision="FP16">
					<dim>1</dim>
					<dim>192</dim>
					<dim>32</dim>
					<dim>32</dim>
				</port>
			</output>
		</layer>
		<layer id="367" name="Conv_48/fq_input_0" type="FakeQuantize" version="opset1">
			<data auto_broadcast="numpy" levels="256"/>
			<input>
				<port id="0">
					<dim>1</dim>
					<dim>192</dim>
					<dim>32</dim>
					<dim>32</dim>
				</port>
				<port id="1">
					<dim>1</dim>
					<dim>192</dim>
					<dim>1</dim>
					<dim>1</dim>
				</port>
				<port id="2">
					<dim>1</dim>
					<dim>192</dim>
					<dim>1</dim>
					<dim>1</dim>
				</port>
				<port id="3">
					<dim>1</dim>
					<dim>192</dim>
					<dim>1</dim>
					<dim>1</dim>
				</port>
				<port id="4">
					<dim>1</dim>
					<dim>192</dim>
					<dim>1</dim>
					<dim>1</dim>
				</port>
			</input>
			<output>
				<port id="5" precision="FP16">
					<dim>1</dim>
					<dim>192</dim>
					<dim>32</dim>
					<dim>32</dim>
				</port>
			</output>
		</layer>
		<layer id="368" name="11218/value1122012822" type="Const" version="opset1">
			<data element_type="i64" offset="50498" shape="5" size="40"/>
			<output>
				<port id="0" precision="I64">
					<dim>5</dim>
				</port>
			</output>
		</layer>
		<layer id="369" name="BatchNormalization_49/mean/Fused_Mul__copy4848155/quantized931112933" type="Const" version="opset1">
			<data element_type="i8" offset="67050" shape="192,1,3,3" size="1728"/>
			<output>
				<port id="0" precision="I8">
					<dim>192</dim>
					<dim>1</dim>
					<dim>3</dim>
					<dim>3</dim>
				</port>
			</output>
		</layer>
		<layer id="370" name="BatchNormalization_49/mean/Fused_Mul__copy4848155/quantized/to_f16" type="Convert" version="opset1">
			<data destination_type="f16"/>
			<input>
				<port id="0">
					<dim>192</dim>
					<dim>1</dim>
					<dim>3</dim>
					<dim>3</dim>
				</port>
			</input>
			<output>
				<port id="1" precision="FP16">
					<dim>192</dim>
					<dim>1</dim>
					<dim>3</dim>
					<dim>3</dim>
				</port>
			</output>
		</layer>
		<layer id="371" name="Conv_48/fq_weights_1/zero_point932413104" type="Const" version="opset1">
			<data element_type="f16" offset="68778" shape="192,1,1,1" size="384"/>
			<output>
				<port id="0" precision="FP16">
					<dim>192</dim>
					<dim>1</dim>
					<dim>1</dim>
					<dim>1</dim>
				</port>
			</output>
		</layer>
		<layer id="372" name="Conv_48/fq_weights_1/minus_zp" type="Subtract" version="opset1">
			<data auto_broadcast="numpy"/>
			<input>
				<port id="0">
					<dim>192</dim>
					<dim>1</dim>
					<dim>3</dim>
					<dim>3</dim>
				</port>
				<port id="1">
					<dim>192</dim>
					<dim>1</dim>
					<dim>1</dim>
					<dim>1</dim>
				</port>
			</input>
			<output>
				<port id="2" precision="FP16">
					<dim>192</dim>
					<dim>1</dim>
					<dim>3</dim>
					<dim>3</dim>
				</port>
			</output>
		</layer>
		<layer id="373" name="Conv_48/fq_weights_1/scale931913791" type="Const" version="opset1">
			<data element_type="f16" offset="69162" shape="192,1,1,1" size="384"/>
			<output>
				<port id="0" precision="FP16">
					<dim>192</dim>
					<dim>1</dim>
					<dim>1</dim>
					<dim>1</dim>
				</port>
			</output>
		</layer>
		<layer id="374" name="Conv_48/fq_weights_1/mulpiply_by_scale" type="Multiply" version="opset1">
			<data auto_broadcast="numpy"/>
			<input>
				<port id="0">
					<dim>192</dim>
					<dim>1</dim>
					<dim>3</dim>
					<dim>3</dim>
				</port>
				<port id="1">
					<dim>192</dim>
					<dim>1</dim>
					<dim>1</dim>
					<dim>1</dim>
				</port>
			</input>
			<output>
				<port id="2" precision="FP16">
					<dim>192</dim>
					<dim>1</dim>
					<dim>3</dim>
					<dim>3</dim>
				</port>
			</output>
		</layer>
		<layer id="375" name="11218" type="Reshape" version="opset1">
			<data special_zero="true"/>
			<input>
				<port id="0">
					<dim>192</dim>
					<dim>1</dim>
					<dim>3</dim>
					<dim>3</dim>
				</port>
				<port id="1">
					<dim>5</dim>
				</port>
			</input>
			<output>
				<port id="2" precision="FP16">
					<dim>192</dim>
					<dim>1</dim>
					<dim>1</dim>
					<dim>3</dim>
					<dim>3</dim>
				</port>
			</output>
		</layer>
		<layer id="376" name="Conv_48" type="GroupConvolution" version="opset1">
			<data auto_pad="explicit" dilations="1,1" pads_begin="1,1" pads_end="1,1" strides="1,1"/>
			<input>
				<port id="0">
					<dim>1</dim>
					<dim>192</dim>
					<dim>32</dim>
					<dim>32</dim>
				</port>
				<port id="1">
					<dim>192</dim>
					<dim>1</dim>
					<dim>1</dim>
					<dim>3</dim>
					<dim>3</dim>
				</port>
			</input>
			<output>
				<port id="2" precision="FP16">
					<dim>1</dim>
					<dim>192</dim>
					<dim>32</dim>
					<dim>32</dim>
				</port>
			</output>
		</layer>
		<layer id="377" name="data_add_120281203348613695" type="Const" version="opset1">
			<data element_type="f16" offset="69546" shape="1,192,1,1" size="384"/>
			<output>
				<port id="0" precision="FP16">
					<dim>1</dim>
					<dim>192</dim>
					<dim>1</dim>
					<dim>1</dim>
				</port>
			</output>
		</layer>
		<layer id="378" name="BatchNormalization_49/variance/Fused_Add_" type="Add" version="opset1">
			<data auto_broadcast="numpy"/>
			<input>
				<port id="0">
					<dim>1</dim>
					<dim>192</dim>
					<dim>32</dim>
					<dim>32</dim>
				</port>
				<port id="1">
					<dim>1</dim>
					<dim>192</dim>
					<dim>1</dim>
					<dim>1</dim>
				</port>
			</input>
			<output>
				<port id="2" names="399" precision="FP16">
					<dim>1</dim>
					<dim>192</dim>
					<dim>32</dim>
					<dim>32</dim>
				</port>
			</output>
		</layer>
		<layer id="379" name="Clip_50" type="Clamp" version="opset1">
			<data max="6" min="0"/>
			<input>
				<port id="0">
					<dim>1</dim>
					<dim>192</dim>
					<dim>32</dim>
					<dim>32</dim>
				</port>
			</input>
			<output>
				<port id="1" names="400" precision="FP16">
					<dim>1</dim>
					<dim>192</dim>
					<dim>32</dim>
					<dim>32</dim>
				</port>
			</output>
		</layer>
		<layer id="380" name="Conv_51/fq_input_0" type="FakeQuantize" version="opset1">
			<data auto_broadcast="numpy" levels="256"/>
			<input>
				<port id="0">
					<dim>1</dim>
					<dim>192</dim>
					<dim>32</dim>
					<dim>32</dim>
				</port>
				<port id="1"/>
				<port id="2"/>
				<port id="3"/>
				<port id="4"/>
			</input>
			<output>
				<port id="5" precision="FP16">
					<dim>1</dim>
					<dim>192</dim>
					<dim>32</dim>
					<dim>32</dim>
				</port>
			</output>
		</layer>
		<layer id="381" name="BatchNormalization_52/mean/Fused_Mul__copy4898157/quantized921513341" type="Const" version="opset1">
			<data element_type="i8" offset="69930" shape="32,192,1,1" size="6144"/>
			<output>
				<port id="0" precision="I8">
					<dim>32</dim>
					<dim>192</dim>
					<dim>1</dim>
					<dim>1</dim>
				</port>
			</output>
		</layer>
		<layer id="382" name="BatchNormalization_52/mean/Fused_Mul__copy4898157/quantized/to_f16" type="Convert" version="opset1">
			<data destination_type="f16"/>
			<input>
				<port id="0">
					<dim>32</dim>
					<dim>192</dim>
					<dim>1</dim>
					<dim>1</dim>
				</port>
			</input>
			<output>
				<port id="1" precision="FP16">
					<dim>32</dim>
					<dim>192</dim>
					<dim>1</dim>
					<dim>1</dim>
				</port>
			</output>
		</layer>
		<layer id="383" name="Conv_51/fq_weights_1/zero_point922813062" type="Const" version="opset1">
			<data element_type="f16" offset="76074" shape="32,1,1,1" size="64"/>
			<output>
				<port id="0" precision="FP16">
					<dim>32</dim>
					<dim>1</dim>
					<dim>1</dim>
					<dim>1</dim>
				</port>
			</output>
		</layer>
		<layer id="384" name="Conv_51/fq_weights_1/minus_zp" type="Subtract" version="opset1">
			<data auto_broadcast="numpy"/>
			<input>
				<port id="0">
					<dim>32</dim>
					<dim>192</dim>
					<dim>1</dim>
					<dim>1</dim>
				</port>
				<port id="1">
					<dim>32</dim>
					<dim>1</dim>
					<dim>1</dim>
					<dim>1</dim>
				</port>
			</input>
			<output>
				<port id="2" precision="FP16">
					<dim>32</dim>
					<dim>192</dim>
					<dim>1</dim>
					<dim>1</dim>
				</port>
			</output>
		</layer>
		<layer id="385" name="Conv_51/fq_weights_1/scale922313929" type="Const" version="opset1">
			<data element_type="f16" offset="76138" shape="32,1,1,1" size="64"/>
			<output>
				<port id="0" precision="FP16">
					<dim>32</dim>
					<dim>1</dim>
					<dim>1</dim>
					<dim>1</dim>
				</port>
			</output>
		</layer>
		<layer id="386" name="Conv_51/fq_weights_1/mulpiply_by_scale" type="Multiply" version="opset1">
			<data auto_broadcast="numpy"/>
			<input>
				<port id="0">
					<dim>32</dim>
					<dim>192</dim>
					<dim>1</dim>
					<dim>1</dim>
				</port>
				<port id="1">
					<dim>32</dim>
					<dim>1</dim>
					<dim>1</dim>
					<dim>1</dim>
				</port>
			</input>
			<output>
				<port id="2" precision="FP16">
					<dim>32</dim>
					<dim>192</dim>
					<dim>1</dim>
					<dim>1</dim>
				</port>
			</output>
		</layer>
		<layer id="387" name="Conv_51" type="Convolution" version="opset1">
			<data auto_pad="explicit" dilations="1,1" pads_begin="0,0" pads_end="0,0" strides="1,1"/>
			<input>
				<port id="0">
					<dim>1</dim>
					<dim>192</dim>
					<dim>32</dim>
					<dim>32</dim>
				</port>
				<port id="1">
					<dim>32</dim>
					<dim>192</dim>
					<dim>1</dim>
					<dim>1</dim>
				</port>
			</input>
			<output>
				<port id="2" precision="FP16">
					<dim>1</dim>
					<dim>32</dim>
					<dim>32</dim>
					<dim>32</dim>
				</port>
			</output>
		</layer>
		<layer id="388" name="data_add_120361204149112453" type="Const" version="opset1">
			<data element_type="f16" offset="76202" shape="1,32,1,1" size="64"/>
			<output>
				<port id="0" precision="FP16">
					<dim>1</dim>
					<dim>32</dim>
					<dim>1</dim>
					<dim>1</dim>
				</port>
			</output>
		</layer>
		<layer id="389" name="BatchNormalization_52/variance/Fused_Add_" type="Add" version="opset1">
			<data auto_broadcast="numpy"/>
			<input>
				<port id="0">
					<dim>1</dim>
					<dim>32</dim>
					<dim>32</dim>
					<dim>32</dim>
				</port>
				<port id="1">
					<dim>1</dim>
					<dim>32</dim>
					<dim>1</dim>
					<dim>1</dim>
				</port>
			</input>
			<output>
				<port id="2" names="402" precision="FP16">
					<dim>1</dim>
					<dim>32</dim>
					<dim>32</dim>
					<dim>32</dim>
				</port>
			</output>
		</layer>
		<layer id="390" name="Add_53/fq_input_0" type="FakeQuantize" version="opset1">
			<data auto_broadcast="numpy" levels="256"/>
			<input>
				<port id="0">
					<dim>1</dim>
					<dim>32</dim>
					<dim>32</dim>
					<dim>32</dim>
				</port>
				<port id="1"/>
				<port id="2"/>
				<port id="3"/>
				<port id="4"/>
			</input>
			<output>
				<port id="5" precision="FP16">
					<dim>1</dim>
					<dim>32</dim>
					<dim>32</dim>
					<dim>32</dim>
				</port>
			</output>
		</layer>
		<layer id="391" name="Add_53" type="Add" version="opset1">
			<data auto_broadcast="numpy"/>
			<input>
				<port id="0">
					<dim>1</dim>
					<dim>32</dim>
					<dim>32</dim>
					<dim>32</dim>
				</port>
				<port id="1">
					<dim>1</dim>
					<dim>32</dim>
					<dim>32</dim>
					<dim>32</dim>
				</port>
			</input>
			<output>
				<port id="2" names="403" precision="FP16">
					<dim>1</dim>
					<dim>32</dim>
					<dim>32</dim>
					<dim>32</dim>
				</port>
			</output>
		</layer>
		<layer id="392" name="Conv_54/fq_input_0" type="FakeQuantize" version="opset1">
			<data auto_broadcast="numpy" levels="256"/>
			<input>
				<port id="0">
					<dim>1</dim>
					<dim>32</dim>
					<dim>32</dim>
					<dim>32</dim>
				</port>
				<port id="1"/>
				<port id="2"/>
				<port id="3"/>
				<port id="4"/>
			</input>
			<output>
				<port id="5" precision="FP16">
					<dim>1</dim>
					<dim>32</dim>
					<dim>32</dim>
					<dim>32</dim>
				</port>
			</output>
		</layer>
		<layer id="393" name="BatchNormalization_55/mean/Fused_Mul__copy4948159/quantized991113848" type="Const" version="opset1">
			<data element_type="i8" offset="76266" shape="192,32,1,1" size="6144"/>
			<output>
				<port id="0" precision="I8">
					<dim>192</dim>
					<dim>32</dim>
					<dim>1</dim>
					<dim>1</dim>
				</port>
			</output>
		</layer>
		<layer id="394" name="BatchNormalization_55/mean/Fused_Mul__copy4948159/quantized/to_f16" type="Convert" version="opset1">
			<data destination_type="f16"/>
			<input>
				<port id="0">
					<dim>192</dim>
					<dim>32</dim>
					<dim>1</dim>
					<dim>1</dim>
				</port>
			</input>
			<output>
				<port id="1" precision="FP16">
					<dim>192</dim>
					<dim>32</dim>
					<dim>1</dim>
					<dim>1</dim>
				</port>
			</output>
		</layer>
		<layer id="395" name="Conv_54/fq_weights_1/zero_point992413677" type="Const" version="opset1">
			<data element_type="f16" offset="82410" shape="192,1,1,1" size="384"/>
			<output>
				<port id="0" precision="FP16">
					<dim>192</dim>
					<dim>1</dim>
					<dim>1</dim>
					<dim>1</dim>
				</port>
			</output>
		</layer>
		<layer id="396" name="Conv_54/fq_weights_1/minus_zp" type="Subtract" version="opset1">
			<data auto_broadcast="numpy"/>
			<input>
				<port id="0">
					<dim>192</dim>
					<dim>32</dim>
					<dim>1</dim>
					<dim>1</dim>
				</port>
				<port id="1">
					<dim>192</dim>
					<dim>1</dim>
					<dim>1</dim>
					<dim>1</dim>
				</port>
			</input>
			<output>
				<port id="2" precision="FP16">
					<dim>192</dim>
					<dim>32</dim>
					<dim>1</dim>
					<dim>1</dim>
				</port>
			</output>
		</layer>
		<layer id="397" name="Conv_54/fq_weights_1/scale991913284" type="Const" version="opset1">
			<data element_type="f16" offset="82794" shape="192,1,1,1" size="384"/>
			<output>
				<port id="0" precision="FP16">
					<dim>192</dim>
					<dim>1</dim>
					<dim>1</dim>
					<dim>1</dim>
				</port>
			</output>
		</layer>
		<layer id="398" name="Conv_54/fq_weights_1/mulpiply_by_scale" type="Multiply" version="opset1">
			<data auto_broadcast="numpy"/>
			<input>
				<port id="0">
					<dim>192</dim>
					<dim>32</dim>
					<dim>1</dim>
					<dim>1</dim>
				</port>
				<port id="1">
					<dim>192</dim>
					<dim>1</dim>
					<dim>1</dim>
					<dim>1</dim>
				</port>
			</input>
			<output>
				<port id="2" precision="FP16">
					<dim>192</dim>
					<dim>32</dim>
					<dim>1</dim>
					<dim>1</dim>
				</port>
			</output>
		</layer>
		<layer id="399" name="Conv_54" type="Convolution" version="opset1">
			<data auto_pad="explicit" dilations="1,1" pads_begin="0,0" pads_end="0,0" strides="1,1"/>
			<input>
				<port id="0">
					<dim>1</dim>
					<dim>32</dim>
					<dim>32</dim>
					<dim>32</dim>
				</port>
				<port id="1">
					<dim>192</dim>
					<dim>32</dim>
					<dim>1</dim>
					<dim>1</dim>
				</port>
			</input>
			<output>
				<port id="2" precision="FP16">
					<dim>1</dim>
					<dim>192</dim>
					<dim>32</dim>
					<dim>32</dim>
				</port>
			</output>
		</layer>
		<layer id="400" name="data_add_120441204949612558" type="Const" version="opset1">
			<data element_type="f16" offset="83178" shape="1,192,1,1" size="384"/>
			<output>
				<port id="0" precision="FP16">
					<dim>1</dim>
					<dim>192</dim>
					<dim>1</dim>
					<dim>1</dim>
				</port>
			</output>
		</layer>
		<layer id="401" name="BatchNormalization_55/variance/Fused_Add_" type="Add" version="opset1">
			<data auto_broadcast="numpy"/>
			<input>
				<port id="0">
					<dim>1</dim>
					<dim>192</dim>
					<dim>32</dim>
					<dim>32</dim>
				</port>
				<port id="1">
					<dim>1</dim>
					<dim>192</dim>
					<dim>1</dim>
					<dim>1</dim>
				</port>
			</input>
			<output>
				<port id="2" names="405" precision="FP16">
					<dim>1</dim>
					<dim>192</dim>
					<dim>32</dim>
					<dim>32</dim>
				</port>
			</output>
		</layer>
		<layer id="402" name="Clip_56" type="Clamp" version="opset1">
			<data max="6" min="0"/>
			<input>
				<port id="0">
					<dim>1</dim>
					<dim>192</dim>
					<dim>32</dim>
					<dim>32</dim>
				</port>
			</input>
			<output>
				<port id="1" names="406" precision="FP16">
					<dim>1</dim>
					<dim>192</dim>
					<dim>32</dim>
					<dim>32</dim>
				</port>
			</output>
		</layer>
		<layer id="403" name="Conv_57/fq_input_0" type="FakeQuantize" version="opset1">
			<data auto_broadcast="numpy" levels="256"/>
			<input>
				<port id="0">
					<dim>1</dim>
					<dim>192</dim>
					<dim>32</dim>
					<dim>32</dim>
				</port>
				<port id="1">
					<dim>1</dim>
					<dim>192</dim>
					<dim>1</dim>
					<dim>1</dim>
				</port>
				<port id="2">
					<dim>1</dim>
					<dim>192</dim>
					<dim>1</dim>
					<dim>1</dim>
				</port>
				<port id="3">
					<dim>1</dim>
					<dim>192</dim>
					<dim>1</dim>
					<dim>1</dim>
				</port>
				<port id="4">
					<dim>1</dim>
					<dim>192</dim>
					<dim>1</dim>
					<dim>1</dim>
				</port>
			</input>
			<output>
				<port id="5" precision="FP16">
					<dim>1</dim>
					<dim>192</dim>
					<dim>32</dim>
					<dim>32</dim>
				</port>
			</output>
		</layer>
		<layer id="404" name="11194/value1119613581" type="Const" version="opset1">
			<data element_type="i64" offset="50498" shape="5" size="40"/>
			<output>
				<port id="0" precision="I64">
					<dim>5</dim>
				</port>
			</output>
		</layer>
		<layer id="405" name="BatchNormalization_58/mean/Fused_Mul__copy4998161/quantized974312978" type="Const" version="opset1">
			<data element_type="i8" offset="83562" shape="192,1,3,3" size="1728"/>
			<output>
				<port id="0" precision="I8">
					<dim>192</dim>
					<dim>1</dim>
					<dim>3</dim>
					<dim>3</dim>
				</port>
			</output>
		</layer>
		<layer id="406" name="BatchNormalization_58/mean/Fused_Mul__copy4998161/quantized/to_f16" type="Convert" version="opset1">
			<data destination_type="f16"/>
			<input>
				<port id="0">
					<dim>192</dim>
					<dim>1</dim>
					<dim>3</dim>
					<dim>3</dim>
				</port>
			</input>
			<output>
				<port id="1" precision="FP16">
					<dim>192</dim>
					<dim>1</dim>
					<dim>3</dim>
					<dim>3</dim>
				</port>
			</output>
		</layer>
		<layer id="407" name="Conv_57/fq_weights_1/zero_point975613713" type="Const" version="opset1">
			<data element_type="f16" offset="85290" shape="192,1,1,1" size="384"/>
			<output>
				<port id="0" precision="FP16">
					<dim>192</dim>
					<dim>1</dim>
					<dim>1</dim>
					<dim>1</dim>
				</port>
			</output>
		</layer>
		<layer id="408" name="Conv_57/fq_weights_1/minus_zp" type="Subtract" version="opset1">
			<data auto_broadcast="numpy"/>
			<input>
				<port id="0">
					<dim>192</dim>
					<dim>1</dim>
					<dim>3</dim>
					<dim>3</dim>
				</port>
				<port id="1">
					<dim>192</dim>
					<dim>1</dim>
					<dim>1</dim>
					<dim>1</dim>
				</port>
			</input>
			<output>
				<port id="2" precision="FP16">
					<dim>192</dim>
					<dim>1</dim>
					<dim>3</dim>
					<dim>3</dim>
				</port>
			</output>
		</layer>
		<layer id="409" name="Conv_57/fq_weights_1/scale975113725" type="Const" version="opset1">
			<data element_type="f16" offset="85674" shape="192,1,1,1" size="384"/>
			<output>
				<port id="0" precision="FP16">
					<dim>192</dim>
					<dim>1</dim>
					<dim>1</dim>
					<dim>1</dim>
				</port>
			</output>
		</layer>
		<layer id="410" name="Conv_57/fq_weights_1/mulpiply_by_scale" type="Multiply" version="opset1">
			<data auto_broadcast="numpy"/>
			<input>
				<port id="0">
					<dim>192</dim>
					<dim>1</dim>
					<dim>3</dim>
					<dim>3</dim>
				</port>
				<port id="1">
					<dim>192</dim>
					<dim>1</dim>
					<dim>1</dim>
					<dim>1</dim>
				</port>
			</input>
			<output>
				<port id="2" precision="FP16">
					<dim>192</dim>
					<dim>1</dim>
					<dim>3</dim>
					<dim>3</dim>
				</port>
			</output>
		</layer>
		<layer id="411" name="11194" type="Reshape" version="opset1">
			<data special_zero="true"/>
			<input>
				<port id="0">
					<dim>192</dim>
					<dim>1</dim>
					<dim>3</dim>
					<dim>3</dim>
				</port>
				<port id="1">
					<dim>5</dim>
				</port>
			</input>
			<output>
				<port id="2" precision="FP16">
					<dim>192</dim>
					<dim>1</dim>
					<dim>1</dim>
					<dim>3</dim>
					<dim>3</dim>
				</port>
			</output>
		</layer>
		<layer id="412" name="Conv_57" type="GroupConvolution" version="opset1">
			<data auto_pad="explicit" dilations="1,1" pads_begin="1,1" pads_end="1,1" strides="2,2"/>
			<input>
				<port id="0">
					<dim>1</dim>
					<dim>192</dim>
					<dim>32</dim>
					<dim>32</dim>
				</port>
				<port id="1">
					<dim>192</dim>
					<dim>1</dim>
					<dim>1</dim>
					<dim>3</dim>
					<dim>3</dim>
				</port>
			</input>
			<output>
				<port id="2" precision="FP16">
					<dim>1</dim>
					<dim>192</dim>
					<dim>16</dim>
					<dim>16</dim>
				</port>
			</output>
		</layer>
		<layer id="413" name="data_add_120521205750113410" type="Const" version="opset1">
			<data element_type="f16" offset="86058" shape="1,192,1,1" size="384"/>
			<output>
				<port id="0" precision="FP16">
					<dim>1</dim>
					<dim>192</dim>
					<dim>1</dim>
					<dim>1</dim>
				</port>
			</output>
		</layer>
		<layer id="414" name="BatchNormalization_58/variance/Fused_Add_" type="Add" version="opset1">
			<data auto_broadcast="numpy"/>
			<input>
				<port id="0">
					<dim>1</dim>
					<dim>192</dim>
					<dim>16</dim>
					<dim>16</dim>
				</port>
				<port id="1">
					<dim>1</dim>
					<dim>192</dim>
					<dim>1</dim>
					<dim>1</dim>
				</port>
			</input>
			<output>
				<port id="2" names="408" precision="FP16">
					<dim>1</dim>
					<dim>192</dim>
					<dim>16</dim>
					<dim>16</dim>
				</port>
			</output>
		</layer>
		<layer id="415" name="Clip_59" type="Clamp" version="opset1">
			<data max="6" min="0"/>
			<input>
				<port id="0">
					<dim>1</dim>
					<dim>192</dim>
					<dim>16</dim>
					<dim>16</dim>
				</port>
			</input>
			<output>
				<port id="1" names="409" precision="FP16">
					<dim>1</dim>
					<dim>192</dim>
					<dim>16</dim>
					<dim>16</dim>
				</port>
			</output>
		</layer>
		<layer id="416" name="Conv_60/fq_input_0" type="FakeQuantize" version="opset1">
			<data auto_broadcast="numpy" levels="256"/>
			<input>
				<port id="0">
					<dim>1</dim>
					<dim>192</dim>
					<dim>16</dim>
					<dim>16</dim>
				</port>
				<port id="1"/>
				<port id="2"/>
				<port id="3"/>
				<port id="4"/>
			</input>
			<output>
				<port id="5" precision="FP16">
					<dim>1</dim>
					<dim>192</dim>
					<dim>16</dim>
					<dim>16</dim>
				</port>
			</output>
		</layer>
		<layer id="417" name="BatchNormalization_61/mean/Fused_Mul__copy5048163/quantized1003112942" type="Const" version="opset1">
			<data element_type="i8" offset="86442" shape="64,192,1,1" size="12288"/>
			<output>
				<port id="0" precision="I8">
					<dim>64</dim>
					<dim>192</dim>
					<dim>1</dim>
					<dim>1</dim>
				</port>
			</output>
		</layer>
		<layer id="418" name="BatchNormalization_61/mean/Fused_Mul__copy5048163/quantized/to_f16" type="Convert" version="opset1">
			<data destination_type="f16"/>
			<input>
				<port id="0">
					<dim>64</dim>
					<dim>192</dim>
					<dim>1</dim>
					<dim>1</dim>
				</port>
			</input>
			<output>
				<port id="1" precision="FP16">
					<dim>64</dim>
					<dim>192</dim>
					<dim>1</dim>
					<dim>1</dim>
				</port>
			</output>
		</layer>
		<layer id="419" name="Conv_60/fq_weights_1/zero_point1004413572" type="Const" version="opset1">
			<data element_type="f16" offset="98730" shape="64,1,1,1" size="128"/>
			<output>
				<port id="0" precision="FP16">
					<dim>64</dim>
					<dim>1</dim>
					<dim>1</dim>
					<dim>1</dim>
				</port>
			</output>
		</layer>
		<layer id="420" name="Conv_60/fq_weights_1/minus_zp" type="Subtract" version="opset1">
			<data auto_broadcast="numpy"/>
			<input>
				<port id="0">
					<dim>64</dim>
					<dim>192</dim>
					<dim>1</dim>
					<dim>1</dim>
				</port>
				<port id="1">
					<dim>64</dim>
					<dim>1</dim>
					<dim>1</dim>
					<dim>1</dim>
				</port>
			</input>
			<output>
				<port id="2" precision="FP16">
					<dim>64</dim>
					<dim>192</dim>
					<dim>1</dim>
					<dim>1</dim>
				</port>
			</output>
		</layer>
		<layer id="421" name="Conv_60/fq_weights_1/scale1003913164" type="Const" version="opset1">
			<data element_type="f16" offset="98858" shape="64,1,1,1" size="128"/>
			<output>
				<port id="0" precision="FP16">
					<dim>64</dim>
					<dim>1</dim>
					<dim>1</dim>
					<dim>1</dim>
				</port>
			</output>
		</layer>
		<layer id="422" name="Conv_60/fq_weights_1/mulpiply_by_scale" type="Multiply" version="opset1">
			<data auto_broadcast="numpy"/>
			<input>
				<port id="0">
					<dim>64</dim>
					<dim>192</dim>
					<dim>1</dim>
					<dim>1</dim>
				</port>
				<port id="1">
					<dim>64</dim>
					<dim>1</dim>
					<dim>1</dim>
					<dim>1</dim>
				</port>
			</input>
			<output>
				<port id="2" precision="FP16">
					<dim>64</dim>
					<dim>192</dim>
					<dim>1</dim>
					<dim>1</dim>
				</port>
			</output>
		</layer>
		<layer id="423" name="Conv_60" type="Convolution" version="opset1">
			<data auto_pad="explicit" dilations="1,1" pads_begin="0,0" pads_end="0,0" strides="1,1"/>
			<input>
				<port id="0">
					<dim>1</dim>
					<dim>192</dim>
					<dim>16</dim>
					<dim>16</dim>
				</port>
				<port id="1">
					<dim>64</dim>
					<dim>192</dim>
					<dim>1</dim>
					<dim>1</dim>
				</port>
			</input>
			<output>
				<port id="2" precision="FP16">
					<dim>1</dim>
					<dim>64</dim>
					<dim>16</dim>
					<dim>16</dim>
				</port>
			</output>
		</layer>
		<layer id="424" name="data_add_120601206550612819" type="Const" version="opset1">
			<data element_type="f16" offset="98986" shape="1,64,1,1" size="128"/>
			<output>
				<port id="0" precision="FP16">
					<dim>1</dim>
					<dim>64</dim>
					<dim>1</dim>
					<dim>1</dim>
				</port>
			</output>
		</layer>
		<layer id="425" name="BatchNormalization_61/variance/Fused_Add_" type="Add" version="opset1">
			<data auto_broadcast="numpy"/>
			<input>
				<port id="0">
					<dim>1</dim>
					<dim>64</dim>
					<dim>16</dim>
					<dim>16</dim>
				</port>
				<port id="1">
					<dim>1</dim>
					<dim>64</dim>
					<dim>1</dim>
					<dim>1</dim>
				</port>
			</input>
			<output>
				<port id="2" names="411" precision="FP16">
					<dim>1</dim>
					<dim>64</dim>
					<dim>16</dim>
					<dim>16</dim>
				</port>
			</output>
		</layer>
		<layer id="426" name="Add_70/fq_input_1" type="FakeQuantize" version="opset1">
			<data auto_broadcast="numpy" levels="256"/>
			<input>
				<port id="0">
					<dim>1</dim>
					<dim>64</dim>
					<dim>16</dim>
					<dim>16</dim>
				</port>
				<port id="1"/>
				<port id="2"/>
				<port id="3"/>
				<port id="4"/>
			</input>
			<output>
				<port id="5" precision="FP16">
					<dim>1</dim>
					<dim>64</dim>
					<dim>16</dim>
					<dim>16</dim>
				</port>
			</output>
		</layer>
		<layer id="427" name="BatchNormalization_63/mean/Fused_Mul__copy5088165/quantized926313602" type="Const" version="opset1">
			<data element_type="i8" offset="99114" shape="384,64,1,1" size="24576"/>
			<output>
				<port id="0" precision="I8">
					<dim>384</dim>
					<dim>64</dim>
					<dim>1</dim>
					<dim>1</dim>
				</port>
			</output>
		</layer>
		<layer id="428" name="BatchNormalization_63/mean/Fused_Mul__copy5088165/quantized/to_f16" type="Convert" version="opset1">
			<data destination_type="f16"/>
			<input>
				<port id="0">
					<dim>384</dim>
					<dim>64</dim>
					<dim>1</dim>
					<dim>1</dim>
				</port>
			</input>
			<output>
				<port id="1" precision="FP16">
					<dim>384</dim>
					<dim>64</dim>
					<dim>1</dim>
					<dim>1</dim>
				</port>
			</output>
		</layer>
		<layer id="429" name="Conv_62/fq_weights_1/zero_point927612495" type="Const" version="opset1">
			<data element_type="f16" offset="123690" shape="384,1,1,1" size="768"/>
			<output>
				<port id="0" precision="FP16">
					<dim>384</dim>
					<dim>1</dim>
					<dim>1</dim>
					<dim>1</dim>
				</port>
			</output>
		</layer>
		<layer id="430" name="Conv_62/fq_weights_1/minus_zp" type="Subtract" version="opset1">
			<data auto_broadcast="numpy"/>
			<input>
				<port id="0">
					<dim>384</dim>
					<dim>64</dim>
					<dim>1</dim>
					<dim>1</dim>
				</port>
				<port id="1">
					<dim>384</dim>
					<dim>1</dim>
					<dim>1</dim>
					<dim>1</dim>
				</port>
			</input>
			<output>
				<port id="2" precision="FP16">
					<dim>384</dim>
					<dim>64</dim>
					<dim>1</dim>
					<dim>1</dim>
				</port>
			</output>
		</layer>
		<layer id="431" name="Conv_62/fq_weights_1/scale927113716" type="Const" version="opset1">
			<data element_type="f16" offset="124458" shape="384,1,1,1" size="768"/>
			<output>
				<port id="0" precision="FP16">
					<dim>384</dim>
					<dim>1</dim>
					<dim>1</dim>
					<dim>1</dim>
				</port>
			</output>
		</layer>
…
		<edge from-layer="89" from-port="0" to-layer="450" to-port="2"/>
		<edge from-layer="90" from-port="0" to-layer="450" to-port="3"/>
		<edge from-layer="91" from-port="0" to-layer="450" to-port="4"/>
		<edge from-layer="451" from-port="0" to-layer="452" to-port="0"/>
		<edge from-layer="452" from-port="1" to-layer="454" to-port="0"/>
		<edge from-layer="453" from-port="0" to-layer="454" to-port="1"/>
		<edge from-layer="454" from-port="2" to-layer="456" to-port="0"/>
		<edge from-layer="455" from-port="0" to-layer="456" to-port="1"/>
		<edge from-layer="450" from-port="5" to-layer="457" to-port="0"/>
		<edge from-layer="456" from-port="2" to-layer="457" to-port="1"/>
		<edge from-layer="457" from-port="2" to-layer="459" to-port="0"/>
		<edge from-layer="458" from-port="0" to-layer="459" to-port="1"/>
		<edge from-layer="459" from-port="2" to-layer="460" to-port="0"/>
		<edge from-layer="84" from-port="0" to-layer="460" to-port="1"/>
		<edge from-layer="85" from-port="0" to-layer="460" to-port="2"/>
		<edge from-layer="86" from-port="0" to-layer="460" to-port="3"/>
		<edge from-layer="87" from-port="0" to-layer="460" to-port="4"/>
		<edge from-layer="460" from-port="5" to-layer="461" to-port="0"/>
		<edge from-layer="426" from-port="5" to-layer="461" to-port="1"/>
		<edge from-layer="461" from-port="2" to-layer="462" to-port="0"/>
		<edge from-layer="80" from-port="0" to-layer="462" to-port="1"/>
		<edge from-layer="81" from-port="0" to-layer="462" to-port="2"/>
		<edge from-layer="82" from-port="0" to-layer="462" to-port="3"/>
		<edge from-layer="83" from-port="0" to-layer="462" to-port="4"/>
		<edge from-layer="463" from-port="0" to-layer="464" to-port="0"/>
		<edge from-layer="464" from-port="1" to-layer="466" to-port="0"/>
		<edge from-layer="465" from-port="0" to-layer="466" to-port="1"/>
		<edge from-layer="466" from-port="2" to-layer="468" to-port="0"/>
		<edge from-layer="467" from-port="0" to-layer="468" to-port="1"/>
		<edge from-layer="462" from-port="5" to-layer="469" to-port="0"/>
		<edge from-layer="468" from-port="2" to-layer="469" to-port="1"/>
		<edge from-layer="469" from-port="2" to-layer="471" to-port="0"/>
		<edge from-layer="470" from-port="0" to-layer="471" to-port="1"/>
		<edge from-layer="471" from-port="2" to-layer="472" to-port="0"/>
		<edge from-layer="472" from-port="1" to-layer="473" to-port="0"/>
		<edge from-layer="76" from-port="0" to-layer="473" to-port="1"/>
		<edge from-layer="77" from-port="0" to-layer="473" to-port="2"/>
		<edge from-layer="78" from-port="0" to-layer="473" to-port="3"/>
		<edge from-layer="79" from-port="0" to-layer="473" to-port="4"/>
		<edge from-layer="475" from-port="0" to-layer="476" to-port="0"/>
		<edge from-layer="476" from-port="1" to-layer="478" to-port="0"/>
		<edge from-layer="477" from-port="0" to-layer="478" to-port="1"/>
		<edge from-layer="478" from-port="2" to-layer="480" to-port="0"/>
		<edge from-layer="479" from-port="0" to-layer="480" to-port="1"/>
		<edge from-layer="480" from-port="2" to-layer="481" to-port="0"/>
		<edge from-layer="474" from-port="0" to-layer="481" to-port="1"/>
		<edge from-layer="473" from-port="5" to-layer="482" to-port="0"/>
		<edge from-layer="481" from-port="2" to-layer="482" to-port="1"/>
		<edge from-layer="482" from-port="2" to-layer="484" to-port="0"/>
		<edge from-layer="483" from-port="0" to-layer="484" to-port="1"/>
		<edge from-layer="484" from-port="2" to-layer="485" to-port="0"/>
		<edge from-layer="485" from-port="1" to-layer="486" to-port="0"/>
		<edge from-layer="72" from-port="0" to-layer="486" to-port="1"/>
		<edge from-layer="73" from-port="0" to-layer="486" to-port="2"/>
		<edge from-layer="74" from-port="0" to-layer="486" to-port="3"/>
		<edge from-layer="75" from-port="0" to-layer="486" to-port="4"/>
		<edge from-layer="487" from-port="0" to-layer="488" to-port="0"/>
		<edge from-layer="488" from-port="1" to-layer="490" to-port="0"/>
		<edge from-layer="489" from-port="0" to-layer="490" to-port="1"/>
		<edge from-layer="490" from-port="2" to-layer="492" to-port="0"/>
		<edge from-layer="491" from-port="0" to-layer="492" to-port="1"/>
		<edge from-layer="486" from-port="5" to-layer="493" to-port="0"/>
		<edge from-layer="492" from-port="2" to-layer="493" to-port="1"/>
		<edge from-layer="493" from-port="2" to-layer="495" to-port="0"/>
		<edge from-layer="494" from-port="0" to-layer="495" to-port="1"/>
		<edge from-layer="495" from-port="2" to-layer="496" to-port="0"/>
		<edge from-layer="68" from-port="0" to-layer="496" to-port="1"/>
		<edge from-layer="69" from-port="0" to-layer="496" to-port="2"/>
		<edge from-layer="70" from-port="0" to-layer="496" to-port="3"/>
		<edge from-layer="71" from-port="0" to-layer="496" to-port="4"/>
		<edge from-layer="496" from-port="5" to-layer="497" to-port="0"/>
		<edge from-layer="462" from-port="5" to-layer="497" to-port="1"/>
		<edge from-layer="497" from-port="2" to-layer="498" to-port="0"/>
		<edge from-layer="64" from-port="0" to-layer="498" to-port="1"/>
		<edge from-layer="65" from-port="0" to-layer="498" to-port="2"/>
		<edge from-layer="66" from-port="0" to-layer="498" to-port="3"/>
		<edge from-layer="67" from-port="0" to-layer="498" to-port="4"/>
		<edge from-layer="499" from-port="0" to-layer="500" to-port="0"/>
		<edge from-layer="500" from-port="1" to-layer="502" to-port="0"/>
		<edge from-layer="501" from-port="0" to-layer="502" to-port="1"/>
		<edge from-layer="502" from-port="2" to-layer="504" to-port="0"/>
		<edge from-layer="503" from-port="0" to-layer="504" to-port="1"/>
		<edge from-layer="498" from-port="5" to-layer="505" to-port="0"/>
		<edge from-layer="504" from-port="2" to-layer="505" to-port="1"/>
		<edge from-layer="505" from-port="2" to-layer="507" to-port="0"/>
		<edge from-layer="506" from-port="0" to-layer="507" to-port="1"/>
		<edge from-layer="507" from-port="2" to-layer="508" to-port="0"/>
		<edge from-layer="508" from-port="1" to-layer="509" to-port="0"/>
		<edge from-layer="60" from-port="0" to-layer="509" to-port="1"/>
		<edge from-layer="61" from-port="0" to-layer="509" to-port="2"/>
		<edge from-layer="62" from-port="0" to-layer="509" to-port="3"/>
		<edge from-layer="63" from-port="0" to-layer="509" to-port="4"/>
		<edge from-layer="511" from-port="0" to-layer="512" to-port="0"/>
		<edge from-layer="512" from-port="1" to-layer="514" to-port="0"/>
		<edge from-layer="513" from-port="0" to-layer="514" to-port="1"/>
		<edge from-layer="514" from-port="2" to-layer="516" to-port="0"/>
		<edge from-layer="515" from-port="0" to-layer="516" to-port="1"/>
		<edge from-layer="516" from-port="2" to-layer="517" to-port="0"/>
		<edge from-layer="510" from-port="0" to-layer="517" to-port="1"/>
		<edge from-layer="509" from-port="5" to-layer="518" to-port="0"/>
		<edge from-layer="517" from-port="2" to-layer="518" to-port="1"/>
		<edge from-layer="518" from-port="2" to-layer="520" to-port="0"/>
		<edge from-layer="519" from-port="0" to-layer="520" to-port="1"/>
		<edge from-layer="520" from-port="2" to-layer="521" to-port="0"/>
		<edge from-layer="521" from-port="1" to-layer="522" to-port="0"/>
		<edge from-layer="56" from-port="0" to-layer="522" to-port="1"/>
		<edge from-layer="57" from-port="0" to-layer="522" to-port="2"/>
		<edge from-layer="58" from-port="0" to-layer="522" to-port="3"/>
		<edge from-layer="59" from-port="0" to-layer="522" to-port="4"/>
		<edge from-layer="523" from-port="0" to-layer="524" to-port="0"/>
		<edge from-layer="524" from-port="1" to-layer="526" to-port="0"/>
		<edge from-layer="525" from-port="0" to-layer="526" to-port="1"/>
		<edge from-layer="526" from-port="2" to-layer="528" to-port="0"/>
		<edge from-layer="527" from-port="0" to-layer="528" to-port="1"/>
		<edge from-layer="522" from-port="5" to-layer="529" to-port="0"/>
		<edge from-layer="528" from-port="2" to-layer="529" to-port="1"/>
		<edge from-layer="529" from-port="2" to-layer="531" to-port="0"/>
		<edge from-layer="530" from-port="0" to-layer="531" to-port="1"/>
		<edge from-layer="531" from-port="2" to-layer="532" to-port="0"/>
		<edge from-layer="52" from-port="0" to-layer="532" to-port="1"/>
		<edge from-layer="53" from-port="0" to-layer="532" to-port="2"/>
		<edge from-layer="54" from-port="0" to-layer="532" to-port="3"/>
		<edge from-layer="55" from-port="0" to-layer="532" to-port="4"/>
		<edge from-layer="532" from-port="5" to-layer="533" to-port="0"/>
		<edge from-layer="498" from-port="5" to-layer="533" to-port="1"/>
		<edge from-layer="533" from-port="2" to-layer="534" to-port="0"/>
		<edge from-layer="48" from-port="0" to-layer="534" to-port="1"/>
		<edge from-layer="49" from-port="0" to-layer="534" to-port="2"/>
		<edge from-layer="50" from-port="0" to-layer="534" to-port="3"/>
		<edge from-layer="51" from-port="0" to-layer="534" to-port="4"/>
		<edge from-layer="535" from-port="0" to-layer="536" to-port="0"/>
		<edge from-layer="536" from-port="1" to-layer="538" to-port="0"/>
		<edge from-layer="537" from-port="0" to-layer="538" to-port="1"/>
		<edge from-layer="538" from-port="2" to-layer="540" to-port="0"/>
		<edge from-layer="539" from-port="0" to-layer="540" to-port="1"/>
		<edge from-layer="534" from-port="5" to-layer="541" to-port="0"/>
		<edge from-layer="540" from-port="2" to-layer="541" to-port="1"/>
		<edge from-layer="541" from-port="2" to-layer="543" to-port="0"/>
		<edge from-layer="542" from-port="0" to-layer="543" to-port="1"/>
		<edge from-layer="543" from-port="2" to-layer="544" to-port="0"/>
		<edge from-layer="544" from-port="1" to-layer="545" to-port="0"/>
		<edge from-layer="44" from-port="0" to-layer="545" to-port="1"/>
		<edge from-layer="45" from-port="0" to-layer="545" to-port="2"/>
		<edge from-layer="46" from-port="0" to-layer="545" to-port="3"/>
		<edge from-layer="47" from-port="0" to-layer="545" to-port="4"/>
		<edge from-layer="547" from-port="0" to-layer="548" to-port="0"/>
		<edge from-layer="548" from-port="1" to-layer="550" to-port="0"/>
		<edge from-layer="549" from-port="0" to-layer="550" to-port="1"/>
		<edge from-layer="550" from-port="2" to-layer="552" to-port="0"/>
		<edge from-layer="551" from-port="0" to-layer="552" to-port="1"/>
		<edge from-layer="552" from-port="2" to-layer="553" to-port="0"/>
		<edge from-layer="546" from-port="0" to-layer="553" to-port="1"/>
		<edge from-layer="545" from-port="5" to-layer="554" to-port="0"/>
		<edge from-layer="553" from-port="2" to-layer="554" to-port="1"/>
		<edge from-layer="554" from-port="2" to-layer="556" to-port="0"/>
		<edge from-layer="555" from-port="0" to-layer="556" to-port="1"/>
		<edge from-layer="556" from-port="2" to-layer="557" to-port="0"/>
		<edge from-layer="557" from-port="1" to-layer="558" to-port="0"/>
		<edge from-layer="40" from-port="0" to-layer="558" to-port="1"/>
		<edge from-layer="41" from-port="0" to-layer="558" to-port="2"/>
		<edge from-layer="42" from-port="0" to-layer="558" to-port="3"/>
		<edge from-layer="43" from-port="0" to-layer="558" to-port="4"/>
		<edge from-layer="559" from-port="0" to-layer="560" to-port="0"/>
		<edge from-layer="560" from-port="1" to-layer="562" to-port="0"/>
		<edge from-layer="561" from-port="0" to-layer="562" to-port="1"/>
		<edge from-layer="562" from-port="2" to-layer="564" to-port="0"/>
		<edge from-layer="563" from-port="0" to-layer="564" to-port="1"/>
		<edge from-layer="558" from-port="5" to-layer="565" to-port="0"/>
		<edge from-layer="564" from-port="2" to-layer="565" to-port="1"/>
		<edge from-layer="565" from-port="2" to-layer="567" to-port="0"/>
		<edge from-layer="566" from-port="0" to-layer="567" to-port="1"/>
		<edge from-layer="567" from-port="2" to-layer="568" to-port="0"/>
		<edge from-layer="36" from-port="0" to-layer="568" to-port="1"/>
		<edge from-layer="37" from-port="0" to-layer="568" to-port="2"/>
		<edge from-layer="38" from-port="0" to-layer="568" to-port="3"/>
		<edge from-layer="39" from-port="0" to-layer="568" to-port="4"/>
		<edge from-layer="569" from-port="0" to-layer="570" to-port="0"/>
		<edge from-layer="570" from-port="1" to-layer="572" to-port="0"/>
		<edge from-layer="571" from-port="0" to-layer="572" to-port="1"/>
		<edge from-layer="572" from-port="2" to-layer="574" to-port="0"/>
		<edge from-layer="573" from-port="0" to-layer="574" to-port="1"/>
		<edge from-layer="568" from-port="5" to-layer="575" to-port="0"/>
		<edge from-layer="574" from-port="2" to-layer="575" to-port="1"/>
		<edge from-layer="575" from-port="2" to-layer="577" to-port="0"/>
		<edge from-layer="576" from-port="0" to-layer="577" to-port="1"/>
		<edge from-layer="577" from-port="2" to-layer="578" to-port="0"/>
		<edge from-layer="578" from-port="1" to-layer="579" to-port="0"/>
		<edge from-layer="32" from-port="0" to-layer="579" to-port="1"/>
		<edge from-layer="33" from-port="0" to-layer="579" to-port="2"/>
		<edge from-layer="34" from-port="0" to-layer="579" to-port="3"/>
		<edge from-layer="35" from-port="0" to-layer="579" to-port="4"/>
		<edge from-layer="581" from-port="0" to-layer="582" to-port="0"/>
		<edge from-layer="582" from-port="1" to-layer="584" to-port="0"/>
		<edge from-layer="583" from-port="0" to-layer="584" to-port="1"/>
		<edge from-layer="584" from-port="2" to-layer="586" to-port="0"/>
		<edge from-layer="585" from-port="0" to-layer="586" to-port="1"/>
		<edge from-layer="586" from-port="2" to-layer="587" to-port="0"/>
		<edge from-layer="580" from-port="0" to-layer="587" to-port="1"/>
		<edge from-layer="579" from-port="5" to-layer="588" to-port="0"/>
		<edge from-layer="587" from-port="2" to-layer="588" to-port="1"/>
		<edge from-layer="588" from-port="2" to-layer="590" to-port="0"/>
		<edge from-layer="589" from-port="0" to-layer="590" to-port="1"/>
		<edge from-layer="590" from-port="2" to-layer="591" to-port="0"/>
		<edge from-layer="591" from-port="1" to-layer="592" to-port="0"/>
		<edge from-layer="28" from-port="0" to-layer="592" to-port="1"/>
		<edge from-layer="29" from-port="0" to-layer="592" to-port="2"/>
		<edge from-layer="30" from-port="0" to-layer="592" to-port="3"/>
		<edge from-layer="31" from-port="0" to-layer="592" to-port="4"/>
		<edge from-layer="593" from-port="0" to-layer="594" to-port="0"/>
		<edge from-layer="594" from-port="1" to-layer="596" to-port="0"/>
		<edge from-layer="595" from-port="0" to-layer="596" to-port="1"/>
		<edge from-layer="596" from-port="2" to-layer="598" to-port="0"/>
		<edge from-layer="597" from-port="0" to-layer="598" to-port="1"/>
		<edge from-layer="592" from-port="5" to-layer="599" to-port="0"/>
		<edge from-layer="598" from-port="2" to-layer="599" to-port="1"/>
		<edge from-layer="599" from-port="2" to-layer="601" to-port="0"/>
		<edge from-layer="600" from-port="0" to-layer="601" to-port="1"/>
		<edge from-layer="601" from-port="2" to-layer="602" to-port="0"/>
		<edge from-layer="24" from-port="0" to-layer="602" to-port="1"/>
		<edge from-layer="25" from-port="0" to-layer="602" to-port="2"/>
		<edge from-layer="26" from-port="0" to-layer="602" to-port="3"/>
		<edge from-layer="27" from-port="0" to-layer="602" to-port="4"/>
		<edge from-layer="602" from-port="5" to-layer="603" to-port="0"/>
		<edge from-layer="568" from-port="5" to-layer="603" to-port="1"/>
		<edge from-layer="603" from-port="2" to-layer="604" to-port="0"/>
		<edge from-layer="20" from-port="0" to-layer="604" to-port="1"/>
		<edge from-layer="21" from-port="0" to-layer="604" to-port="2"/>
		<edge from-layer="22" from-port="0" to-layer="604" to-port="3"/>
		<edge from-layer="23" from-port="0" to-layer="604" to-port="4"/>
		<edge from-layer="605" from-port="0" to-layer="606" to-port="0"/>
		<edge from-layer="606" from-port="1" to-layer="608" to-port="0"/>
		<edge from-layer="607" from-port="0" to-layer="608" to-port="1"/>
		<edge from-layer="608" from-port="2" to-layer="610" to-port="0"/>
		<edge from-layer="609" from-port="0" to-layer="610" to-port="1"/>
		<edge from-layer="604" from-port="5" to-layer="611" to-port="0"/>
		<edge from-layer="610" from-port="2" to-layer="611" to-port="1"/>
		<edge from-layer="611" from-port="2" to-layer="613" to-port="0"/>
		<edge from-layer="612" from-port="0" to-layer="613" to-port="1"/>
		<edge from-layer="613" from-port="2" to-layer="614" to-port="0"/>
		<edge from-layer="614" from-port="1" to-layer="615" to-port="0"/>
		<edge from-layer="16" from-port="0" to-layer="615" to-port="1"/>
		<edge from-layer="17" from-port="0" to-layer="615" to-port="2"/>
		<edge from-layer="18" from-port="0" to-layer="615" to-port="3"/>
		<edge from-layer="19" from-port="0" to-layer="615" to-port="4"/>
		<edge from-layer="617" from-port="0" to-layer="618" to-port="0"/>
		<edge from-layer="618" from-port="1" to-layer="620" to-port="0"/>
		<edge from-layer="619" from-port="0" to-layer="620" to-port="1"/>
		<edge from-layer="620" from-port="2" to-layer="622" to-port="0"/>
		<edge from-layer="621" from-port="0" to-layer="622" to-port="1"/>
		<edge from-layer="622" from-port="2" to-layer="623" to-port="0"/>
		<edge from-layer="616" from-port="0" to-layer="623" to-port="1"/>
		<edge from-layer="615" from-port="5" to-layer="624" to-port="0"/>
		<edge from-layer="623" from-port="2" to-layer="624" to-port="1"/>
		<edge from-layer="624" from-port="2" to-layer="626" to-port="0"/>
		<edge from-layer="625" from-port="0" to-layer="626" to-port="1"/>
		<edge from-layer="626" from-port="2" to-layer="627" to-port="0"/>
		<edge from-layer="627" from-port="1" to-layer="628" to-port="0"/>
		<edge from-layer="12" from-port="0" to-layer="628" to-port="1"/>
		<edge from-layer="13" from-port="0" to-layer="628" to-port="2"/>
		<edge from-layer="14" from-port="0" to-layer="628" to-port="3"/>
		<edge from-layer="15" from-port="0" to-layer="628" to-port="4"/>
		<edge from-layer="629" from-port="0" to-layer="630" to-port="0"/>
		<edge from-layer="630" from-port="1" to-layer="632" to-port="0"/>
		<edge from-layer="631" from-port="0" to-layer="632" to-port="1"/>
		<edge from-layer="632" from-port="2" to-layer="634" to-port="0"/>
		<edge from-layer="633" from-port="0" to-layer="634" to-port="1"/>
		<edge from-layer="628" from-port="5" to-layer="635" to-port="0"/>
		<edge from-layer="634" from-port="2" to-layer="635" to-port="1"/>
		<edge from-layer="635" from-port="2" to-layer="637" to-port="0"/>
		<edge from-layer="636" from-port="0" to-layer="637" to-port="1"/>
		<edge from-layer="637" from-port="2" to-layer="638" to-port="0"/>
		<edge from-layer="8" from-port="0" to-layer="638" to-port="1"/>
		<edge from-layer="9" from-port="0" to-layer="638" to-port="2"/>
		<edge from-layer="10" from-port="0" to-layer="638" to-port="3"/>
		<edge from-layer="11" from-port="0" to-layer="638" to-port="4"/>
		<edge from-layer="638" from-port="5" to-layer="639" to-port="0"/>
		<edge from-layer="604" from-port="5" to-layer="639" to-port="1"/>
		<edge from-layer="639" from-port="2" to-layer="640" to-port="0"/>
		<edge from-layer="4" from-port="0" to-layer="640" to-port="1"/>
		<edge from-layer="5" from-port="0" to-layer="640" to-port="2"/>
		<edge from-layer="6" from-port="0" to-layer="640" to-port="3"/>
		<edge from-layer="7" from-port="0" to-layer="640" to-port="4"/>
		<edge from-layer="642" from-port="0" to-layer="643" to-port="0"/>
		<edge from-layer="643" from-port="1" to-layer="645" to-port="0"/>
		<edge from-layer="644" from-port="0" to-layer="645" to-port="1"/>
		<edge from-layer="645" from-port="2" to-layer="647" to-port="0"/>
		<edge from-layer="646" from-port="0" to-layer="647" to-port="1"/>
		<edge from-layer="647" from-port="2" to-layer="648" to-port="0"/>
		<edge from-layer="641" from-port="0" to-layer="648" to-port="1"/>
		<edge from-layer="640" from-port="5" to-layer="649" to-port="0"/>
		<edge from-layer="648" from-port="2" to-layer="649" to-port="1"/>
		<edge from-layer="649" from-port="2" to-layer="651" to-port="0"/>
		<edge from-layer="650" from-port="0" to-layer="651" to-port="1"/>
		<edge from-layer="651" from-port="2" to-layer="652" to-port="0"/>
		<edge from-layer="652" from-port="1" to-layer="653" to-port="0"/>
		<edge from-layer="0" from-port="0" to-layer="653" to-port="1"/>
		<edge from-layer="1" from-port="0" to-layer="653" to-port="2"/>
		<edge from-layer="2" from-port="0" to-layer="653" to-port="3"/>
		<edge from-layer="3" from-port="0" to-layer="653" to-port="4"/>
		<edge from-layer="654" from-port="0" to-layer="655" to-port="0"/>
		<edge from-layer="655" from-port="1" to-layer="657" to-port="0"/>
		<edge from-layer="656" from-port="0" to-layer="657" to-port="1"/>
		<edge from-layer="657" from-port="2" to-layer="659" to-port="0"/>
		<edge from-layer="658" from-port="0" to-layer="659" to-port="1"/>
		<edge from-layer="653" from-port="5" to-layer="660" to-port="0"/>
		<edge from-layer="659" from-port="2" to-layer="660" to-port="1"/>
		<edge from-layer="660" from-port="2" to-layer="662" to-port="0"/>
		<edge from-layer="661" from-port="0" to-layer="662" to-port="1"/>
		<edge from-layer="662" from-port="2" to-layer="664" to-port="0"/>
		<edge from-layer="663" from-port="0" to-layer="664" to-port="1"/>
		<edge from-layer="662" from-port="2" to-layer="665" to-port="0"/>
		<edge from-layer="665" from-port="1" to-layer="668" to-port="0"/>
		<edge from-layer="666" from-port="0" to-layer="668" to-port="1"/>
		<edge from-layer="667" from-port="0" to-layer="668" to-port="2"/>
		<edge from-layer="668" from-port="3" to-layer="670" to-port="0"/>
		<edge from-layer="669" from-port="0" to-layer="670" to-port="1"/>
		<edge from-layer="670" from-port="2" to-layer="672" to-port="0"/>
		<edge from-layer="671" from-port="0" to-layer="672" to-port="1"/>
		<edge from-layer="664" from-port="2" to-layer="673" to-port="0"/>
		<edge from-layer="672" from-port="2" to-layer="673" to-port="1"/>
		<edge from-layer="726" from-port="0" to-layer="727" to-port="0"/>
		<edge from-layer="727" from-port="1" to-layer="729" to-port="0"/>
		<edge from-layer="728" from-port="0" to-layer="729" to-port="1"/>
		<edge from-layer="729" from-port="2" to-layer="731" to-port="0"/>
		<edge from-layer="730" from-port="0" to-layer="731" to-port="1"/>
		<edge from-layer="640" from-port="5" to-layer="732" to-port="0"/>
		<edge from-layer="731" from-port="2" to-layer="732" to-port="1"/>
		<edge from-layer="732" from-port="2" to-layer="734" to-port="0"/>
		<edge from-layer="733" from-port="0" to-layer="734" to-port="1"/>
		<edge from-layer="734" from-port="2" to-layer="735" to-port="0"/>
		<edge from-layer="735" from-port="1" to-layer="736" to-port="0"/>
		<edge from-layer="722" from-port="0" to-layer="736" to-port="1"/>
		<edge from-layer="723" from-port="0" to-layer="736" to-port="2"/>
		<edge from-layer="724" from-port="0" to-layer="736" to-port="3"/>
		<edge from-layer="725" from-port="0" to-layer="736" to-port="4"/>
		<edge from-layer="738" from-port="0" to-layer="739" to-port="0"/>
		<edge from-layer="739" from-port="1" to-layer="741" to-port="0"/>
		<edge from-layer="740" from-port="0" to-layer="741" to-port="1"/>
		<edge from-layer="741" from-port="2" to-layer="743" to-port="0"/>
		<edge from-layer="742" from-port="0" to-layer="743" to-port="1"/>
		<edge from-layer="743" from-port="2" to-layer="744" to-port="0"/>
		<edge from-layer="737" from-port="0" to-layer="744" to-port="1"/>
		<edge from-layer="736" from-port="5" to-layer="745" to-port="0"/>
		<edge from-layer="744" from-port="2" to-layer="745" to-port="1"/>
		<edge from-layer="745" from-port="2" to-layer="747" to-port="0"/>
		<edge from-layer="746" from-port="0" to-layer="747" to-port="1"/>
		<edge from-layer="747" from-port="2" to-layer="748" to-port="0"/>
		<edge from-layer="748" from-port="1" to-layer="749" to-port="0"/>
		<edge from-layer="718" from-port="0" to-layer="749" to-port="1"/>
		<edge from-layer="719" from-port="0" to-layer="749" to-port="2"/>
		<edge from-layer="720" from-port="0" to-layer="749" to-port="3"/>
		<edge from-layer="721" from-port="0" to-layer="749" to-port="4"/>
		<edge from-layer="750" from-port="0" to-layer="751" to-port="0"/>
		<edge from-layer="751" from-port="1" to-layer="753" to-port="0"/>
		<edge from-layer="752" from-port="0" to-layer="753" to-port="1"/>
		<edge from-layer="753" from-port="2" to-layer="755" to-port="0"/>
		<edge from-layer="754" from-port="0" to-layer="755" to-port="1"/>
		<edge from-layer="749" from-port="5" to-layer="756" to-port="0"/>
		<edge from-layer="755" from-port="2" to-layer="756" to-port="1"/>
		<edge from-layer="756" from-port="2" to-layer="758" to-port="0"/>
		<edge from-layer="757" from-port="0" to-layer="758" to-port="1"/>
		<edge from-layer="758" from-port="2" to-layer="759" to-port="0"/>
		<edge from-layer="714" from-port="0" to-layer="759" to-port="1"/>
		<edge from-layer="715" from-port="0" to-layer="759" to-port="2"/>
		<edge from-layer="716" from-port="0" to-layer="759" to-port="3"/>
		<edge from-layer="717" from-port="0" to-layer="759" to-port="4"/>
		<edge from-layer="760" from-port="0" to-layer="761" to-port="0"/>
		<edge from-layer="761" from-port="1" to-layer="763" to-port="0"/>
		<edge from-layer="762" from-port="0" to-layer="763" to-port="1"/>
		<edge from-layer="763" from-port="2" to-layer="765" to-port="0"/>
		<edge from-layer="764" from-port="0" to-layer="765" to-port="1"/>
		<edge from-layer="759" from-port="5" to-layer="766" to-port="0"/>
		<edge from-layer="765" from-port="2" to-layer="766" to-port="1"/>
		<edge from-layer="766" from-port="2" to-layer="768" to-port="0"/>
		<edge from-layer="767" from-port="0" to-layer="768" to-port="1"/>
		<edge from-layer="768" from-port="2" to-layer="769" to-port="0"/>
		<edge from-layer="769" from-port="1" to-layer="770" to-port="0"/>
		<edge from-layer="710" from-port="0" to-layer="770" to-port="1"/>
		<edge from-layer="711" from-port="0" to-layer="770" to-port="2"/>
		<edge from-layer="712" from-port="0" to-layer="770" to-port="3"/>
		<edge from-layer="713" from-port="0" to-layer="770" to-port="4"/>
		<edge from-layer="772" from-port="0" to-layer="773" to-port="0"/>
		<edge from-layer="773" from-port="1" to-layer="775" to-port="0"/>
		<edge from-layer="774" from-port="0" to-layer="775" to-port="1"/>
		<edge from-layer="775" from-port="2" to-layer="777" to-port="0"/>
		<edge from-layer="776" from-port="0" to-layer="777" to-port="1"/>
		<edge from-layer="777" from-port="2" to-layer="778" to-port="0"/>
		<edge from-layer="771" from-port="0" to-layer="778" to-port="1"/>
		<edge from-layer="770" from-port="5" to-layer="779" to-port="0"/>
		<edge from-layer="778" from-port="2" to-layer="779" to-port="1"/>
		<edge from-layer="779" from-port="2" to-layer="781" to-port="0"/>
		<edge from-layer="780" from-port="0" to-layer="781" to-port="1"/>
		<edge from-layer="781" from-port="2" to-layer="782" to-port="0"/>
		<edge from-layer="782" from-port="1" to-layer="783" to-port="0"/>
		<edge from-layer="706" from-port="0" to-layer="783" to-port="1"/>
		<edge from-layer="707" from-port="0" to-layer="783" to-port="2"/>
		<edge from-layer="708" from-port="0" to-layer="783" to-port="3"/>
		<edge from-layer="709" from-port="0" to-layer="783" to-port="4"/>
		<edge from-layer="784" from-port="0" to-layer="785" to-port="0"/>
		<edge from-layer="785" from-port="1" to-layer="787" to-port="0"/>
		<edge from-layer="786" from-port="0" to-layer="787" to-port="1"/>
		<edge from-layer="787" from-port="2" to-layer="789" to-port="0"/>
		<edge from-layer="788" from-port="0" to-layer="789" to-port="1"/>
		<edge from-layer="783" from-port="5" to-layer="790" to-port="0"/>
		<edge from-layer="789" from-port="2" to-layer="790" to-port="1"/>
		<edge from-layer="790" from-port="2" to-layer="792" to-port="0"/>
		<edge from-layer="791" from-port="0" to-layer="792" to-port="1"/>
		<edge from-layer="792" from-port="2" to-layer="793" to-port="0"/>
		<edge from-layer="702" from-port="0" to-layer="793" to-port="1"/>
		<edge from-layer="703" from-port="0" to-layer="793" to-port="2"/>
		<edge from-layer="704" from-port="0" to-layer="793" to-port="3"/>
		<edge from-layer="705" from-port="0" to-layer="793" to-port="4"/>
		<edge from-layer="793" from-port="5" to-layer="794" to-port="0"/>
		<edge from-layer="759" from-port="5" to-layer="794" to-port="1"/>
		<edge from-layer="794" from-port="2" to-layer="795" to-port="0"/>
		<edge from-layer="698" from-port="0" to-layer="795" to-port="1"/>
		<edge from-layer="699" from-port="0" to-layer="795" to-port="2"/>
		<edge from-layer="700" from-port="0" to-layer="795" to-port="3"/>
		<edge from-layer="701" from-port="0" to-layer="795" to-port="4"/>
		<edge from-layer="796" from-port="0" to-layer="797" to-port="0"/>
		<edge from-layer="797" from-port="1" to-layer="799" to-port="0"/>
		<edge from-layer="798" from-port="0" to-layer="799" to-port="1"/>
		<edge from-layer="799" from-port="2" to-layer="801" to-port="0"/>
		<edge from-layer="800" from-port="0" to-layer="801" to-port="1"/>
		<edge from-layer="795" from-port="5" to-layer="802" to-port="0"/>
		<edge from-layer="801" from-port="2" to-layer="802" to-port="1"/>
		<edge from-layer="802" from-port="2" to-layer="804" to-port="0"/>
		<edge from-layer="803" from-port="0" to-layer="804" to-port="1"/>
		<edge from-layer="804" from-port="2" to-layer="805" to-port="0"/>
		<edge from-layer="805" from-port="1" to-layer="806" to-port="0"/>
		<edge from-layer="694" from-port="0" to-layer="806" to-port="1"/>
		<edge from-layer="695" from-port="0" to-layer="806" to-port="2"/>
		<edge from-layer="696" from-port="0" to-layer="806" to-port="3"/>
		<edge from-layer="697" from-port="0" to-layer="806" to-port="4"/>
		<edge from-layer="808" from-port="0" to-layer="809" to-port="0"/>
		<edge from-layer="809" from-port="1" to-layer="811" to-port="0"/>
		<edge from-layer="810" from-port="0" to-layer="811" to-port="1"/>
		<edge from-layer="811" from-port="2" to-layer="813" to-port="0"/>
		<edge from-layer="812" from-port="0" to-layer="813" to-port="1"/>
		<edge from-layer="813" from-port="2" to-layer="814" to-port="0"/>
		<edge from-layer="807" from-port="0" to-layer="814" to-port="1"/>
		<edge from-layer="806" from-port="5" to-layer="815" to-port="0"/>
		<edge from-layer="814" from-port="2" to-layer="815" to-port="1"/>
		<edge from-layer="815" from-port="2" to-layer="817" to-port="0"/>
		<edge from-layer="816" from-port="0" to-layer="817" to-port="1"/>
		<edge from-layer="817" from-port="2" to-layer="818" to-port="0"/>
		<edge from-layer="818" from-port="1" to-layer="819" to-port="0"/>
		<edge from-layer="690" from-port="0" to-layer="819" to-port="1"/>
		<edge from-layer="691" from-port="0" to-layer="819" to-port="2"/>
		<edge from-layer="692" from-port="0" to-layer="819" to-port="3"/>
		<edge from-layer="693" from-port="0" to-layer="819" to-port="4"/>
		<edge from-layer="820" from-port="0" to-layer="821" to-port="0"/>
		<edge from-layer="821" from-port="1" to-layer="823" to-port="0"/>
		<edge from-layer="822" from-port="0" to-layer="823" to-port="1"/>
		<edge from-layer="823" from-port="2" to-layer="825" to-port="0"/>
		<edge from-layer="824" from-port="0" to-layer="825" to-port="1"/>
		<edge from-layer="819" from-port="5" to-layer="826" to-port="0"/>
		<edge from-layer="825" from-port="2" to-layer="826" to-port="1"/>
		<edge from-layer="826" from-port="2" to-layer="828" to-port="0"/>
		<edge from-layer="827" from-port="0" to-layer="828" to-port="1"/>
		<edge from-layer="828" from-port="2" to-layer="829" to-port="0"/>
		<edge from-layer="686" from-port="0" to-layer="829" to-port="1"/>
		<edge from-layer="687" from-port="0" to-layer="829" to-port="2"/>
		<edge from-layer="688" from-port="0" to-layer="829" to-port="3"/>
		<edge from-layer="689" from-port="0" to-layer="829" to-port="4"/>
		<edge from-layer="829" from-port="5" to-layer="830" to-port="0"/>
		<edge from-layer="795" from-port="5" to-layer="830" to-port="1"/>
		<edge from-layer="830" from-port="2" to-layer="831" to-port="0"/>
		<edge from-layer="682" from-port="0" to-layer="831" to-port="1"/>
		<edge from-layer="683" from-port="0" to-layer="831" to-port="2"/>
		<edge from-layer="684" from-port="0" to-layer="831" to-port="3"/>
		<edge from-layer="685" from-port="0" to-layer="831" to-port="4"/>
		<edge from-layer="832" from-port="0" to-layer="833" to-port="0"/>
		<edge from-layer="833" from-port="1" to-layer="835" to-port="0"/>
		<edge from-layer="834" from-port="0" to-layer="835" to-port="1"/>
		<edge from-layer="835" from-port="2" to-layer="837" to-port="0"/>
		<edge from-layer="836" from-port="0" to-layer="837" to-port="1"/>
		<edge from-layer="831" from-port="5" to-layer="838" to-port="0"/>
		<edge from-layer="837" from-port="2" to-layer="838" to-port="1"/>
		<edge from-layer="838" from-port="2" to-layer="840" to-port="0"/>
		<edge from-layer="839" from-port="0" to-layer="840" to-port="1"/>
		<edge from-layer="840" from-port="2" to-layer="841" to-port="0"/>
		<edge from-layer="841" from-port="1" to-layer="843" to-port="0"/>
		<edge from-layer="842" from-port="0" to-layer="843" to-port="1"/>
		<edge from-layer="843" from-port="2" to-layer="845" to-port="0"/>
		<edge from-layer="844" from-port="0" to-layer="845" to-port="1"/>
		<edge from-layer="845" from-port="2" to-layer="846" to-port="0"/>
		<edge from-layer="846" from-port="1" to-layer="847" to-port="0"/>
		<edge from-layer="678" from-port="0" to-layer="847" to-port="1"/>
		<edge from-layer="679" from-port="0" to-layer="847" to-port="2"/>
		<edge from-layer="680" from-port="0" to-layer="847" to-port="3"/>
		<edge from-layer="681" from-port="0" to-layer="847" to-port="4"/>
		<edge from-layer="848" from-port="0" to-layer="849" to-port="0"/>
		<edge from-layer="849" from-port="1" to-layer="851" to-port="0"/>
		<edge from-layer="850" from-port="0" to-layer="851" to-port="1"/>
		<edge from-layer="851" from-port="2" to-layer="853" to-port="0"/>
		<edge from-layer="852" from-port="0" to-layer="853" to-port="1"/>
		<edge from-layer="847" from-port="5" to-layer="854" to-port="0"/>
		<edge from-layer="853" from-port="2" to-layer="854" to-port="1"/>
		<edge from-layer="854" from-port="2" to-layer="856" to-port="0"/>
		<edge from-layer="855" from-port="0" to-layer="856" to-port="1"/>
		<edge from-layer="856" from-port="2" to-layer="858" to-port="0"/>
		<edge from-layer="857" from-port="0" to-layer="858" to-port="1"/>
		<edge from-layer="858" from-port="2" to-layer="860" to-port="0"/>
		<edge from-layer="859" from-port="0" to-layer="860" to-port="1"/>
		<edge from-layer="860" from-port="2" to-layer="861" to-port="0"/>
		<edge from-layer="861" from-port="1" to-layer="862" to-port="0"/>
		<edge from-layer="674" from-port="0" to-layer="862" to-port="1"/>
		<edge from-layer="675" from-port="0" to-layer="862" to-port="2"/>
		<edge from-layer="676" from-port="0" to-layer="862" to-port="3"/>
		<edge from-layer="677" from-port="0" to-layer="862" to-port="4"/>
		<edge from-layer="863" from-port="0" to-layer="864" to-port="0"/>
		<edge from-layer="864" from-port="1" to-layer="866" to-port="0"/>
		<edge from-layer="865" from-port="0" to-layer="866" to-port="1"/>
		<edge from-layer="866" from-port="2" to-layer="868" to-port="0"/>
		<edge from-layer="867" from-port="0" to-layer="868" to-port="1"/>
		<edge from-layer="862" from-port="5" to-layer="869" to-port="0"/>
		<edge from-layer="868" from-port="2" to-layer="869" to-port="1"/>
		<edge from-layer="869" from-port="2" to-layer="871" to-port="0"/>
		<edge from-layer="870" from-port="0" to-layer="871" to-port="1"/>
		<edge from-layer="871" from-port="2" to-layer="873" to-port="0"/>
		<edge from-layer="872" from-port="0" to-layer="873" to-port="1"/>
		<edge from-layer="871" from-port="2" to-layer="874" to-port="0"/>
		<edge from-layer="874" from-port="1" to-layer="877" to-port="0"/>
		<edge from-layer="875" from-port="0" to-layer="877" to-port="1"/>
		<edge from-layer="876" from-port="0" to-layer="877" to-port="2"/>
		<edge from-layer="877" from-port="3" to-layer="879" to-port="0"/>
		<edge from-layer="878" from-port="0" to-layer="879" to-port="1"/>
		<edge from-layer="879" from-port="2" to-layer="881" to-port="0"/>
		<edge from-layer="880" from-port="0" to-layer="881" to-port="1"/>
		<edge from-layer="873" from-port="2" to-layer="882" to-port="0"/>
		<edge from-layer="881" from-port="2" to-layer="882" to-port="1"/>
		<edge from-layer="673" from-port="2" to-layer="883" to-port="0"/>
		<edge from-layer="882" from-port="2" to-layer="883" to-port="1"/>
		<edge from-layer="889" from-port="0" to-layer="890" to-port="0"/>
		<edge from-layer="890" from-port="1" to-layer="892" to-port="0"/>
		<edge from-layer="891" from-port="0" to-layer="892" to-port="1"/>
		<edge from-layer="892" from-port="2" to-layer="894" to-port="0"/>
		<edge from-layer="893" from-port="0" to-layer="894" to-port="1"/>
		<edge from-layer="894" from-port="2" to-layer="895" to-port="0"/>
		<edge from-layer="888" from-port="0" to-layer="895" to-port="1"/>
		<edge from-layer="640" from-port="5" to-layer="896" to-port="0"/>
		<edge from-layer="895" from-port="2" to-layer="896" to-port="1"/>
		<edge from-layer="896" from-port="2" to-layer="898" to-port="0"/>
		<edge from-layer="897" from-port="0" to-layer="898" to-port="1"/>
		<edge from-layer="898" from-port="2" to-layer="899" to-port="0"/>
		<edge from-layer="899" from-port="1" to-layer="900" to-port="0"/>
		<edge from-layer="884" from-port="0" to-layer="900" to-port="1"/>
		<edge from-layer="885" from-port="0" to-layer="900" to-port="2"/>
		<edge from-layer="886" from-port="0" to-layer="900" to-port="3"/>
		<edge from-layer="887" from-port="0" to-layer="900" to-port="4"/>
		<edge from-layer="901" from-port="0" to-layer="902" to-port="0"/>
		<edge from-layer="902" from-port="1" to-layer="904" to-port="0"/>
		<edge from-layer="903" from-port="0" to-layer="904" to-port="1"/>
		<edge from-layer="904" from-port="2" to-layer="906" to-port="0"/>
		<edge from-layer="905" from-port="0" to-layer="906" to-port="1"/>
		<edge from-layer="900" from-port="5" to-layer="907" to-port="0"/>
		<edge from-layer="906" from-port="2" to-layer="907" to-port="1"/>
		<edge from-layer="907" from-port="2" to-layer="909" to-port="0"/>
		<edge from-layer="908" from-port="0" to-layer="909" to-port="1"/>
		<edge from-layer="909" from-port="2" to-layer="911" to-port="0"/>
		<edge from-layer="910" from-port="0" to-layer="911" to-port="1"/>
		<edge from-layer="909" from-port="2" to-layer="912" to-port="0"/>
		<edge from-layer="912" from-port="1" to-layer="915" to-port="0"/>
		<edge from-layer="913" from-port="0" to-layer="915" to-port="1"/>
		<edge from-layer="914" from-port="0" to-layer="915" to-port="2"/>
		<edge from-layer="915" from-port="3" to-layer="917" to-port="0"/>
		<edge from-layer="916" from-port="0" to-layer="917" to-port="1"/>
		<edge from-layer="917" from-port="2" to-layer="919" to-port="0"/>
		<edge from-layer="918" from-port="0" to-layer="919" to-port="1"/>
		<edge from-layer="911" from-port="2" to-layer="920" to-port="0"/>
		<edge from-layer="919" from-port="2" to-layer="920" to-port="1"/>
		<edge from-layer="856" from-port="2" to-layer="926" to-port="0"/>
		<edge from-layer="925" from-port="0" to-layer="926" to-port="1"/>
		<edge from-layer="926" from-port="2" to-layer="928" to-port="0"/>
		<edge from-layer="927" from-port="0" to-layer="928" to-port="1"/>
		<edge from-layer="928" from-port="2" to-layer="929" to-port="0"/>
		<edge from-layer="929" from-port="1" to-layer="930" to-port="0"/>
		<edge from-layer="921" from-port="0" to-layer="930" to-port="1"/>
		<edge from-layer="922" from-port="0" to-layer="930" to-port="2"/>
		<edge from-layer="923" from-port="0" to-layer="930" to-port="3"/>
		<edge from-layer="924" from-port="0" to-layer="930" to-port="4"/>
		<edge from-layer="931" from-port="0" to-layer="932" to-port="0"/>
		<edge from-layer="932" from-port="1" to-layer="934" to-port="0"/>
		<edge from-layer="933" from-port="0" to-layer="934" to-port="1"/>
		<edge from-layer="934" from-port="2" to-layer="936" to-port="0"/>
		<edge from-layer="935" from-port="0" to-layer="936" to-port="1"/>
		<edge from-layer="930" from-port="5" to-layer="937" to-port="0"/>
		<edge from-layer="936" from-port="2" to-layer="937" to-port="1"/>
		<edge from-layer="937" from-port="2" to-layer="939" to-port="0"/>
		<edge from-layer="938" from-port="0" to-layer="939" to-port="1"/>
		<edge from-layer="939" from-port="2" to-layer="941" to-port="0"/>
		<edge from-layer="940" from-port="0" to-layer="941" to-port="1"/>
		<edge from-layer="939" from-port="2" to-layer="942" to-port="0"/>
		<edge from-layer="942" from-port="1" to-layer="945" to-port="0"/>
		<edge from-layer="943" from-port="0" to-layer="945" to-port="1"/>
		<edge from-layer="944" from-port="0" to-layer="945" to-port="2"/>
		<edge from-layer="945" from-port="3" to-layer="947" to-port="0"/>
		<edge from-layer="946" from-port="0" to-layer="947" to-port="1"/>
		<edge from-layer="947" from-port="2" to-layer="949" to-port="0"/>
		<edge from-layer="948" from-port="0" to-layer="949" to-port="1"/>
		<edge from-layer="941" from-port="2" to-layer="950" to-port="0"/>
		<edge from-layer="949" from-port="2" to-layer="950" to-port="1"/>
		<edge from-layer="920" from-port="2" to-layer="951" to-port="0"/>
		<edge from-layer="950" from-port="2" to-layer="951" to-port="1"/>
		<edge from-layer="951" from-port="2" to-layer="952" to-port="0"/>
		<edge from-layer="952" from-port="1" to-layer="955" to-port="0"/>
		<edge from-layer="953" from-port="0" to-layer="955" to-port="1"/>
		<edge from-layer="954" from-port="0" to-layer="955" to-port="2"/>
		<edge from-layer="955" from-port="3" to-layer="957" to-port="0"/>
		<edge from-layer="956" from-port="0" to-layer="957" to-port="1"/>
		<edge from-layer="957" from-port="2" to-layer="960" to-port="0"/>
		<edge from-layer="958" from-port="0" to-layer="960" to-port="1"/>
		<edge from-layer="959" from-port="0" to-layer="960" to-port="2"/>
		<edge from-layer="951" from-port="2" to-layer="961" to-port="0"/>
		<edge from-layer="960" from-port="3" to-layer="961" to-port="1"/>
		<edge from-layer="961" from-port="2" to-layer="962" to-port="0"/>
		<edge from-layer="962" from-port="1" to-layer="965" to-port="0"/>
		<edge from-layer="963" from-port="0" to-layer="965" to-port="1"/>
		<edge from-layer="964" from-port="0" to-layer="965" to-port="2"/>
		<edge from-layer="965" from-port="3" to-layer="967" to-port="0"/>
		<edge from-layer="966" from-port="0" to-layer="967" to-port="1"/>
		<edge from-layer="967" from-port="2" to-layer="969" to-port="0"/>
		<edge from-layer="968" from-port="0" to-layer="969" to-port="1"/>
		<edge from-layer="961" from-port="2" to-layer="970" to-port="0"/>
		<edge from-layer="969" from-port="2" to-layer="970" to-port="1"/>
		<edge from-layer="970" from-port="2" to-layer="971" to-port="0"/>
		<edge from-layer="961" from-port="2" to-layer="972" to-port="0"/>
		<edge from-layer="971" from-port="1" to-layer="973" to-port="0"/>
		<edge from-layer="972" from-port="1" to-layer="973" to-port="1"/>
		<edge from-layer="973" from-port="2" to-layer="974" to-port="0"/>
		<edge from-layer="974" from-port="1" to-layer="977" to-port="0"/>
		<edge from-layer="975" from-port="0" to-layer="977" to-port="1"/>
		<edge from-layer="976" from-port="0" to-layer="977" to-port="2"/>
		<edge from-layer="977" from-port="3" to-layer="979" to-port="0"/>
		<edge from-layer="978" from-port="0" to-layer="979" to-port="1"/>
		<edge from-layer="979" from-port="2" to-layer="981" to-port="0"/>
		<edge from-layer="980" from-port="0" to-layer="981" to-port="1"/>
		<edge from-layer="973" from-port="2" to-layer="982" to-port="0"/>
		<edge from-layer="981" from-port="2" to-layer="982" to-port="1"/>
		<edge from-layer="639" from-port="2" to-layer="983" to-port="0"/>
		<edge from-layer="983" from-port="1" to-layer="987" to-port="0"/>
		<edge from-layer="984" from-port="0" to-layer="987" to-port="1"/>
		<edge from-layer="985" from-port="0" to-layer="987" to-port="2"/>
		<edge from-layer="986" from-port="0" to-layer="987" to-port="3"/>
		<edge from-layer="190" from-port="2" to-layer="988" to-port="0"/>
		<edge from-layer="988" from-port="1" to-layer="992" to-port="0"/>
		<edge from-layer="989" from-port="0" to-layer="992" to-port="1"/>
		<edge from-layer="990" from-port="0" to-layer="992" to-port="2"/>
		<edge from-layer="991" from-port="0" to-layer="992" to-port="3"/>
		<edge from-layer="987" from-port="4" to-layer="993" to-port="0"/>
		<edge from-layer="992" from-port="4" to-layer="993" to-port="1"/>
		<edge from-layer="993" from-port="2" to-layer="995" to-port="0"/>
		<edge from-layer="994" from-port="0" to-layer="995" to-port="1"/>
		<edge from-layer="856" from-port="2" to-layer="996" to-port="0"/>
		<edge from-layer="996" from-port="1" to-layer="1000" to-port="0"/>
		<edge from-layer="997" from-port="0" to-layer="1000" to-port="1"/>
		<edge from-layer="998" from-port="0" to-layer="1000" to-port="2"/>
		<edge from-layer="999" from-port="0" to-layer="1000" to-port="3"/>
		<edge from-layer="190" from-port="2" to-layer="1001" to-port="0"/>
		<edge from-layer="1001" from-port="1" to-layer="1005" to-port="0"/>
		<edge from-layer="1002" from-port="0" to-layer="1005" to-port="1"/>
		<edge from-layer="1003" from-port="0" to-layer="1005" to-port="2"/>
		<edge from-layer="1004" from-port="0" to-layer="1005" to-port="3"/>
		<edge from-layer="1000" from-port="4" to-layer="1006" to-port="0"/>
		<edge from-layer="1005" from-port="4" to-layer="1006" to-port="1"/>
		<edge from-layer="1006" from-port="2" to-layer="1008" to-port="0"/>
		<edge from-layer="1007" from-port="0" to-layer="1008" to-port="1"/>
		<edge from-layer="995" from-port="2" to-layer="1009" to-port="0"/>
		<edge from-layer="1008" from-port="2" to-layer="1009" to-port="1"/>
		<edge from-layer="883" from-port="2" to-layer="1010" to-port="0"/>
		<edge from-layer="982" from-port="2" to-layer="1010" to-port="1"/>
		<edge from-layer="1009" from-port="2" to-layer="1010" to-port="2"/>
		<edge from-layer="1010" from-port="3" to-layer="1011" to-port="0"/>
	</edges>
	<meta_data>
		<MO_version value="custom_HEAD_149c43044cb1e8ed8cd4f3f196b23f7b3f129a36"/>
		<cli_parameters>
			<caffe_parser_path value="DIR"/>
			<data_type value="FP16"/>
			<disable_nhwc_to_nchw value="False"/>
			<disable_omitting_optional value="False"/>
			<disable_resnet_optimization value="False"/>
			<disable_weights_compression value="False"/>
			<enable_concat_optimization value="False"/>
			<enable_flattening_nested_params value="False"/>
			<enable_ssd_gluoncv value="False"/>
			<extensions value="DIR"/>
			<framework value="onnx"/>
			<freeze_placeholder_with_value value="{}"/>
			<generate_deprecated_IR_V7 value="False"/>
			<input value="image"/>
			<input_model value="DIR/model.onnx"/>
			<input_model_is_text value="False"/>
			<input_shape value="[1,3,256,256]"/>
			<k value="DIR/CustomLayersMapping.xml"/>
			<keep_shape_ops value="True"/>
			<legacy_ir_generation value="False"/>
			<legacy_mxnet_model value="False"/>
			<log_level value="ERROR"/>
			<mean_scale_values value="{'image': {'mean': None, 'scale': array([255.])}}"/>
			<mean_values value="()"/>
			<model_name value="person-vehicle-bike-detection-2000"/>
			<output value="['detection_out']"/>
			<output_dir value="DIR"/>
			<placeholder_data_types value="{}"/>
			<placeholder_shapes value="{'image': array([  1,   3, 256, 256])}"/>
			<progress value="False"/>
			<remove_memory value="False"/>
			<remove_output_softmax value="False"/>
			<reverse_input_channels value="True"/>
			<save_params_from_nd value="False"/>
			<scale_values value="image[255.0]"/>
			<silent value="False"/>
			<static_shape value="False"/>
			<stream_output value="False"/>
			<transform value=""/>
			<unset unset_cli_parameters="batch, counts, disable_fusing, disable_gfusing, finegrain_fusing, input_checkpoint, input_meta_graph, input_proto, input_symbol, mean_file, mean_file_offsets, move_to_preprocess, nd_prefix_name, pretrained_model_name, saved_model_dir, saved_model_tags, scale, tensorboard_logdir, tensorflow_custom_layer_libraries, tensorflow_custom_operations_config_update, tensorflow_object_detection_api_pipeline_config, tensorflow_use_custom_operations_config, transformations_config"/>
		</cli_parameters>
	</meta_data>
	<quantization_parameters>
		<config>{
		'compression': {
			'algorithms': [
				{
					'name': 'AccuracyAwareQuantization',
					'params': {
						'drop_type': 'relative',
						'max_iter_num': 20,
						'maximal_drop': 0.01,
						'metric_subset_ratio': 0.2,
						'preset': 'performance',
						'stat_subset_size': 300,
						'tune_hyperparams': true
					}
				}
			],
			'dump_intermediate_model': true,
			'target_device': 'ANY'
		},
		'engine': {
			'models': [
				{
					'name': 'person-vehicle-bike-detection-2000',
					'launchers': [
						{
							'framework': 'dlsdk',
							'adapter': 'ssd',
							'device': 'CPU'
						}
					],
					'datasets': [
						{
							'name': 'crossroad_extra_untagged',
							'data_source': 'PATH',
							'annotation_conversion': {
								'converter': 'mscoco_detection',
								'annotation_file': 'PATH',
								'has_background': false,
								'sort_annotations': true,
								'use_full_label_map': false
							},
							'annotation': 'PATH',
							'dataset_meta': 'PATH',
							'preprocessing': [
								{
									'type': 'resize',
									'dst_width': 256,
									'dst_height': 256
								}
							],
							'postprocessing': [
								{
									'type': 'resize_prediction_boxes'
								},
								{
									'type': 'clip_boxes',
									'apply_to': 'prediction'
								}
							],
							'metrics': [
								{
									'type': 'coco_orig_precision',
									'include_boundaries': false
								}
							],
							'_command_line_mapping': {
								'annotation_file': 'PATH'
							}
						}
					]
				}
			],
			'stat_requests_number': null,
			'eval_requests_number': null,
			'type': 'accuracy_checker'
		}
	}</config>
		<version value="1.0"/>
		<cli_params value="{'quantize': None, 'preset': None, 'model': None, 'weights': None, 'name': None, 'ac_config': None, 'max_drop': None, 'evaluate': False, 'output_dir': 'PATH', 'direct_dump': True, 'log_level': 'INFO', 'pbar': False, 'stream_output': False, 'keep_uncompressed_weights': False}"/>
	</quantization_parameters>
</net>
